ml/fallnet_cnn.pt (torch, 934925 bytes, 16 tensors)

conv.0.weight f4 [256, 42, 3]
000000 40 e4 b0 3c 1d 42 87 3d 0b 04 2d 3d a8 d2 aa bd
       0.021593213 0.06604407 0.042240184 -0.08340961
000010 54 20 25 3d d8 ed 7a 3d 9f 1a b6 bd ae 9b eb 3d
       0.040314034 0.06126198 -0.08891796 0.11504303
000020 c7 2e 0a 3d c2 84 88 bd e9 2b e3 3d b0 42 2b bd
       0.033736017 -0.066659465 0.110923596 -0.041811645
000030 68 b3 ab 3d e8 72 cd 3d 33 77 22 bd 53 01 81 bd
       0.083838284 0.10031682 -0.03966446 -0.06299081
000040 bc 48 30 be 53 ff a2 bd 4e 79 6a bd 73 81 4e be
       -0.17215246 -0.079588555 -0.05724459 -0.20166568
000050 82 89 41 3d 6f 5b 28 bc ce b8 74 3e 02 fe 37 3d
       0.04725028 -0.010275706 0.23898622 0.044919975
000060 f7 f6 3a bc c5 44 14 be 4b 92 ab bd 91 b7 b3 3d
       -0.01141142 -0.14479358 -0.083775125 0.08775247
000070 3e 63 0b 3d 6a fa 39 3d b6 fc 67 bd 43 3a 9f 3c
       0.03403019 0.04540483 -0.05663749 0.019436961
000080 bd b9 4c bd 1f 81 80 bc 04 fc 13 be ff f0 b2 3d
       -0.04998182 -0.01568657 -0.14451605 0.087373726
000090 59 7e 74 bc 18 5a 8f bd 09 fc 7b 3d 36 f4 d4 3b
       -0.014922702 -0.06999606 0.061519656 0.006498839
0000a0 4a d4 8b 3d d3 bc 5c bd 78 d5 c5 bc 60 ac 10 be
       0.068276 -0.053891014 -0.024149641 -0.14128256
0000b0 7c cc b1 3d 6b 34 97 3d 66 20 0b 3b 24 91 8d 3c
       0.086815804 0.07383045 0.0021229028 0.017281123
0000c0 cc c7 b2 3d a0 01 40 3d 4b 31 60 bd 4b 4e aa bd
       0.087295145 0.04687655 -0.05473451 -0.083157144
0000d0 d0 46 f9 3d 51 94 b2 bd 64 17 2b 3a d9 36 fc b9
       0.121717095 -0.08719695 0.0006526618 -0.0004810605
0000e0 ea 36 a0 bd 3b ab 92 bd 94 b2 79 3e 13 62 ea bc
       -0.07822974 -0.07161566 0.24384528 -0.028611219
0000f0 91 24 a2 3d dd db b7 be 20 04 45 3d 50 d6 7d 3d
       0.07917131 -0.3590993 0.048099637 0.061971962
000100 28 1c dd 3d e7 ce 86 bd 62 e5 63 3d 2d 00 4c 3d
       0.10796386 -0.06582432 0.05563868 0.049804855
000110 f9 d3 ad b9 29 cf 70 3d 13 53 1a be 06 d0 91 bc
       -0.00033155063 0.058791313 -0.15070753 -0.017799389
000120 61 f6 90 bd 42 bb a2 3e 88 90 a2 3d 85 e1 a5 3d
       -0.07078243 0.3178349 0.079377234 0.08099655
000130 9a de 8c 3d 56 69 91 3d 63 bb b2 bb e6 0d 63 3e
       0.068783954 0.07100169 -0.005454467 0.2217327
000140 b0 15 b7 bb 24 db 12 bd b1 58 05 be 68 88 6a 3d
       -0.005587302 -0.03585352 -0.13022114 0.057258993
000150 6b d3 6a 3b 7a 58 27 bd 76 0b ae 3d 59 af 0c bd
       0.0035831581 -0.040855862 0.0849828 -0.034346912
000160 94 cb b0 be 8e 58 cc 3c 16 49 62 3c 64 33 fd 3d
       -0.34530318 0.02494457 0.01381137 0.123633176
000170 93 85 8b bd 1a 91 8a bd aa 19 69 bd 5b 03 d0 bb
       -0.06812587 -0.06765957 -0.05690924 -0.0063480563
000180 65 ab 45 3d 1d d3 26 be 03 3f b4 bd 82 2d 28 bd
       0.048259158 -0.16291471 -0.08801081 -0.041059025
000190 e6 08 26 be 7b 74 4f 3d 38 eb 80 bd 7e 05 a1 3d
       -0.16214332 0.050648194 -0.062948644 0.07862376
0001a0 eb 13 91 bd 1b e5 15 3c 25 f2 3a be 4f c3 80 bd
       -0.07083877 0.009148861 -0.18256433 -0.06287252
0001b0 23 1e ae bd fa 12 a3 3c ec c0 9f bd 88 37 99 bb
       -0.08501842 0.01990651 -0.07800469 -0.0046758093
0001c0 a9 fc 66 bd a4 54 8c 3d 85 96 f0 3b 87 31 b0 bc
       -0.0563933 0.068520814 0.007342162 -0.021507991
0001d0 94 1c 84 3d fb 3d a5 3d 6b 58 90 3b 18 d4 7d bd
       0.06450763 0.080684625 0.0044050715 -0.061969846
0001e0 f7 b6 9f 3b 91 21 11 bd 32 ff af bd b7 cd c0 bb
       0.004874106 -0.035432402 -0.085935965 -0.005883898
0001f0 5f ce 53 be 36 94 10 3b bf 70 ab 3d 33 53 e8 bd
       -0.20684193 0.0022060997 0.08371114 -0.11343994
000200 d9 39 a8 3d 14 b2 ba bc e4 9f 68 3d bc 17 5c bd
       0.082141586 -0.022789992 0.05679311 -0.053733572
000210 58 d1 96 bd 92 e2 be bd 66 db 30 bd 95 86 93 3d
       -0.07364148 -0.093205586 -0.043177985 0.07203404
000220 ce 44 ec bc fe 52 c3 bc f3 06 4c bb 6a 57 0d 3d
       -0.028841402 -0.023843285 -0.0031132072 0.034507193
000230 f5 6f 15 3d 90 46 45 3d a6 cb 51 bc 8a c9 97 bc
       0.036483724 0.048162997 -0.012804901 -0.018528719
000240 03 e7 a0 bb 79 4a 9b 3e c7 eb c3 3c 3e 19 a8 3a
       -0.0049103512 0.30330256 0.023916138 0.0012824906
000250 d0 60 6c 3c d7 d0 b2 bd 5a cb 4b bd 51 cc 81 3e
       0.014427379 -0.08731239 -0.049754478 0.25351194
000260 b6 10 7f bd b9 8f e3 bb 2f b9 02 3d 9b 7f a5 3d
       -0.062271796 -0.0069446233 0.031914886 0.080809794
000270 9d 48 d6 ba e7 dd 92 be 02 b0 55 bd ae e9 b6 3c
       -0.0016348545 -0.28684923 -0.052169807 0.022328224
000280 fe b0 23 bd d6 96 40 bc 42 df a7 3d c2 37 07 3e
       -0.039963715 -0.011754712 0.0819688 0.13204864
000290 99 cf aa 3d 4e 0b 62 3d 51 24 a8 bd 63 f1 95 bd
       0.08340377 0.055186562 -0.08210052 -0.073214315
0002a0 88 72 2d 3d f3 ef 85 bd 14 69 12 3d df d6 27 3d
       0.042345554 -0.06539907 0.03574474 0.0409764
0002b0 24 0d 86 be 64 fd 27 3d bd ff 76 bd 84 9a 0a be
       -0.261819 0.041013137 -0.060302485 -0.13535506
0002c0 92 1c 95 bb 1f 6c 79 bd 23 6e 30 3e 0a e5 91 3d
       -0.004550525 -0.060894128 0.17229514 0.07123764
0002d0 52 75 a6 bd f7 d3 70 bd a6 e2 5a 3d 95 2a 81 bd
       -0.08127846 -0.058795895 0.053438805 -0.0630695
0002e0 4e 31 8f 3d c3 5b 50 bd 74 c9 05 3d b4 06 a3 3c
       0.06991826 -0.05086876 0.032662824 0.019900657
0002f0 3a 66 91 3d 43 da 21 bd 4c 43 12 be 89 3e ae bd
       0.07099576 -0.03951479 -0.14283484 -0.085080214
000300 40 9c a0 bd 2b 5b 3d 3e 89 a3 85 bd a4 13 5d 3c
       -0.07842302 0.18491809 -0.065253325 0.013493452
000310 45 c1 9c be ef 40 79 bd 82 b1 31 bc 8b d2 35 3e
       -0.30616203 -0.06085294 -0.010845544 0.17756097
000320 f7 85 d7 3c 45 0b 5e bd 5f 7a 22 bb 58 64 a8 3b
       0.026308997 -0.054209966 -0.0024792177 0.005138915
000330 d3 2e 02 3d c9 13 d8 3c d5 52 41 bd e5 36 85 3b
       0.031782936 0.026376622 -0.047198135 0.004065382
000340 49 9a c8 3c 16 41 f0 ba f8 0f fc 3c a0 9a e9 bc
       0.024487631 -0.0018329944 0.030769333 -0.028516114
000350 7c 31 93 bd 70 8d 25 3d 13 5a 54 be 2f ab 45 bd
       -0.07187173 0.04041809 -0.20737486 -0.048258957
000360 9c 13 71 3d 10 30 b3 3d 5a 11 41 bd d0 b1 42 3b
       0.05885659 0.087494016 -0.04713569 0.0029708035
000370 e6 a0 85 3e 98 35 b0 bc 79 c3 aa 3c 59 72 0f be
       0.26099318 -0.02150993 0.020845162 -0.14008464
000380 64 3a af bc 3a a7 a7 3d 1e 9d 0f bd fd 6d 30 3d
       -0.021390148 0.08186193 -0.035061948 0.043073643
000390 67 01 a9 bb 97 f8 b8 3d 04 7a f5 3b 65 ff 81 3c
       -0.005157638 0.0903179 0.007491352 0.015868852
0003a0 67 93 6d bd 65 31 15 bd c8 ab 92 3c 8c b0 8d 3b
       -0.058001902 -0.03642406 0.017904177 0.0043240245
0003b0 4a e4 32 bd 53 a7 43 bd 91 9a 62 bc 8e 44 97 bb
       -0.043674745 -0.047766995 -0.013830797 -0.0046163267
0003c0 fa be 64 3d d8 8f aa 3d a5 bc e6 bc 8c 6c 49 3d
       0.055846192 0.08328217 -0.028166125 0.049175784
0003d0 ac 3f d3 3d c2 c6 89 3d fa e0 6c bd 2c ba 88 be
       0.10314879 0.06727363 -0.057831742 -0.26704538
0003e0 dd 23 be 3c 0a 0f 9e 3d a6 9d 15 be ea 8a a5 3d
       0.02321046 0.07717712 -0.1461092 0.080831364
0003f0 00 9c 9e 3c b7 5e 1d 3e 62 b7 9d 3d 0b 62 1c 3b
       0.019361496 0.15368162 0.07700993 0.002386215

conv.0.bias f4 [256]
000000 99 2a 05 3d c6 70 60 bc 27 c1 87 bd 51 88 95 3c
       0.032511327 -0.013698762 -0.06628638 0.018253477
000010 b9 0b 8a bd d6 d9 af bc 5b c3 63 3d 1e 43 3e bd
       -0.06740517 -0.021466177 0.055606227 -0.046450727
000020 c1 c2 82 3d a8 e8 9f bd f0 19 6d 3d c1 79 b8 3d
       0.063848026 -0.078080475 0.057886064 0.09007598
000030 9e 83 b8 bd ee d4 f7 3c 53 30 b2 3d c4 93 25 3a
       -0.09009479 0.0302529 0.08700623 0.0006316269
000040 c5 29 92 bd c0 5b 88 3c 63 d5 86 bd 2e 9c 79 bd
       -0.07136873 0.016645312 -0.06583669 -0.06093996
000050 e0 e2 31 bc eb 4c 6a 3d 51 8b 19 bd 84 5b 33 bd
       -0.010857314 0.05720226 -0.037486378 -0.043788448
000060 28 bf 88 3d 70 57 26 3c 9b 5d 89 bd d1 ae 85 3c
       0.06677085 0.010152683 -0.06707307 0.01631871
000070 6f 2c 15 bd 9d 6f c1 bd 8d 2d 95 bd fa 67 a8 bd
       -0.03641933 -0.09445117 -0.07284079 -0.08222957
000080 d9 78 0d 3c 4e f9 19 bd 5a de a3 bc 6a ce f3 bb
       0.008634769 -0.03759127 -0.020003486 -0.007440378
000090 4f b0 a9 3c 53 c3 d9 3b 1f 2c 5d bd 38 a9 0e 3d
       0.020713953 0.006645599 -0.053997155 0.03482935
0000a0 86 9a a0 3d 9a aa 86 3d d2 85 9a 3d 8c 6d 74 bd
       0.07841973 0.065755084 0.075450554 -0.059674785
0000b0 0a a2 a8 3d 4a 43 8c 3d fd d4 1c bd 01 f9 82 3d
       0.082340315 0.06848772 -0.03828906 0.0639515
0000c0 07 43 a7 bd af 62 cc bb 16 a8 a5 3d c7 77 30 3d
       -0.08167081 -0.00623735 0.080887005 0.04308298
0000d0 a5 12 18 bd 24 be b5 bd ac e2 97 bd ce 68 92 bd
       -0.037127156 -0.08874157 -0.07416281 -0.07148896
0000e0 a7 91 a1 3d c7 4e 5a 3d 4c ba 77 bc c6 ca 33 3b
       0.07889109 0.053297784 -0.0151201 0.0027434095
0000f0 6f cd 45 3d 4c 5e 2b 3d 66 dc a8 bd b1 f8 7f 3c
       0.04829162 0.041837975 -0.08245163 0.0156232575
000100 1c 6b e8 bc ae 24 3f 3d 47 ec 47 3c 57 15 8d 3d
       -0.028371386 0.04666584 0.012202329 0.06888836
000110 40 41 0b 3d 43 07 4f bd 28 65 10 bd d7 48 37 bd
       0.033997774 -0.050544035 -0.03525272 -0.0447472
000120 fa b6 e1 3b b8 18 ad 3d 16 0f f0 b9 ef ff 8d bc
       0.0068882676 0.0845198 -0.00045787607 -0.017333953
000130 f7 20 8f bd 18 2a 71 bd bc 14 b1 bc 65 5c 9b 3d
       -0.069887094 -0.058878034 -0.021616332 0.07585982
000140 1a 63 a8 bd fe b2 db bc dc a6 00 3d d8 dc d4 bb
       -0.08222027 -0.026818749 0.03140913 -0.006496053
000150 1f 07 2f bd 0d 61 84 bd 39 fe ab 3d f9 10 58 bc
       -0.0427314 -0.064638235 0.083980985 -0.01318764
000160 c3 1f 82 bd f0 76 30 3c 97 8e 71 bd ac 18 ed bc
       -0.06353714 0.010770544 -0.058973875 -0.028942429
000170 4f 34 a5 3d 4c b0 a5 3c 50 c7 16 bd 36 7a 98 3c
       0.08066618 0.020225666 -0.036811173 0.018612962
000180 b1 26 4c bd 70 3f 9e bd 69 bd c9 bd 5a d3 e6 bc
       -0.049841587 -0.077269435 -0.0985058 -0.028176952
000190 e4 0b 3a 3d 81 6a a2 3d 7d 50 6a 3d 47 a5 67 bd
       0.045421496 0.0793047 0.057205666 -0.056554105
0001a0 c5 5c 85 3d b7 a3 f5 bc d2 c4 0b bb f2 b4 4e 3d
       0.06511835 -0.029985292 -0.002132703 0.05046553
0001b0 54 df 77 bd 44 e5 94 bb 66 97 e4 3c da 95 02 bc
       -0.060515717 -0.004543932 0.027904224 -0.007970298
0001c0 6d 32 1b 3d 64 d1 74 3d 50 42 59 3d 6f 46 44 3d
       0.037889887 0.059770003 0.053041756 0.047918733
0001d0 dd 8f aa bd 4b 0f a3 3d 90 ee 06 bd 2a 9f eb bc
       -0.08328221 0.07961901 -0.032942355 -0.028762419
0001e0 78 94 98 3c 10 d6 90 bc 2b 8a 3d 3d 04 2a 8f 3c
       0.018625483 -0.017680198 0.046274345 0.01747609
0001f0 fc 80 a8 bd 9d 2d ee bc 5e b5 1c 3d 94 ba 8b 3c
       -0.08227727 -0.029074484 0.038258903 0.01705674
000200 fc ad bb 3c 85 df 95 3d f2 53 38 3d 97 67 85 bc
       0.02291011 0.073180236 0.04500193 -0.016284747
000210 59 db 62 3c 24 17 a2 3c a9 64 cd 3b 5b aa 94 3d
       0.013846242 0.019786425 0.006268103 0.07259055
000220 29 22 02 bd af be 13 3d 1d 35 96 bc fa 18 4d 3d
       -0.03177086 0.036070522 -0.018335873 0.050072648
000230 a5 89 80 3d a0 98 c7 3c 0d 6f 96 3c 55 34 13 3b
       0.062762536 0.02436477 0.0183635 0.0022461612
000240 85 16 96 3d 77 85 3d 3c 0c d2 dd bb 20 71 b6 bd
       0.07328514 0.011567465 -0.0067694243 -0.08908296
000250 cd 3d 6e 3a 70 f6 7d 3d e3 a0 40 3d db 4a b5 3d
       0.00090881885 0.0620026 0.047028434 0.08852168
000260 26 2f 43 3d b6 78 d0 ba 3a 77 57 3d c7 3b 52 3d
       0.047652386 -0.0015905115 0.052603938 0.05132654
000270 f5 1e 7d 3b 55 7c 68 3d 03 e2 54 3c aa ae 2b 3d
       0.0038623188 0.056759197 0.0129933385 0.04191462
000280 3b 9f 93 bd 4b 9c 93 3b f4 38 16 bc 09 1c 66 bd
       -0.07208105 0.0045047156 -0.009168852 -0.05617908
000290 fd 84 f8 bb 6d 85 2a bc 56 0b cb 3c 61 04 ed bb
       -0.007584213 -0.010407788 0.024785679 -0.007233188
0002a0 3e c9 ae bc 12 73 04 bc 23 a8 d4 ba 1d 8d 99 3d
       -0.021336194 -0.0080840755 -0.0016224425 0.07497618
0002b0 90 b1 f3 3c ab 4f 16 3b 63 ba 30 bd ae dd 72 bd
       0.029747754 0.002293567 -0.043146502 -0.05929344
0002c0 ff c0 88 3d 5c aa 66 3d e0 22 db 3c 63 91 8f bc
       0.06677436 0.05631481 0.026750028 -0.01752538
0002d0 94 8b a4 bc c5 69 b3 bd 73 74 5a bd 8d f5 b7 3d
       -0.020086087 -0.08760408 -0.05333371 0.08982382
0002e0 a7 8a 82 3d 31 22 9e 3d d6 58 bd bc fe 4e 76 bd
       0.06374102 0.07721365 -0.02311365 -0.060133927
0002f0 e4 0b 80 bd 00 e5 18 3d 24 7a 14 3d 7e b5 b9 3c
       -0.06252268 0.037327766 0.036249295 0.02266955
000300 14 6f aa 3c 88 16 8a bd f4 6f 76 3c 49 49 95 3d
       0.02080492 -0.06742579 0.01504134 0.07289369
000310 53 49 85 3d a5 f0 6d 3d 5a 8c 53 3d 56 87 3f 3d
       0.06508126 0.058090825 0.05164752 0.046759926
000320 fa 98 83 bd f3 60 86 3d 8e 4f 4c 3d ca d8 aa bd
       -0.06425662 0.0656146 0.049880557 -0.083421305
000330 8f 53 02 bd ab ca 9c bd 94 3c 88 ba 05 bd 4d 3c
       -0.03181797 -0.07655843 -0.001039403 0.012557273
000340 e0 55 04 3d ec 81 be 3c 1f f4 0a 3d 93 73 f3 bc
       0.03230846 0.023255311 0.03392422 -0.029718196
000350 fb ee 9f bd bf 68 93 3d 2b 1c c6 bc 72 d6 4d 3d
       -0.07809254 0.07197713 -0.024183353 0.05025334
000360 77 31 f6 bc 53 47 83 3d d7 87 8c 3d b8 39 12 bc
       -0.030052884 0.064100884 0.06861847 -0.008924894
000370 69 fe a2 bd 17 ac db bc 91 05 3b 3c e3 09 c7 3c
       -0.07958681 -0.026815457 0.011414901 0.024296707
000380 e2 fe 3b bd a3 4f 35 bd 88 f0 44 bd c3 09 39 3c
       -0.045897372 -0.0442654 -0.04808095 0.011293831
000390 d0 fd bb bd 51 bf aa 3c 23 0c f0 bc 49 dc f7 bc
       -0.0917927 0.02084318 -0.029302662 -0.030256407
0003a0 17 0b 9e bd e9 47 1a bc 26 db 44 ba 12 c2 93 3d
       -0.07716959 -0.009416559 -0.00075094623 0.0721475
0003b0 7f 29 7e bd d3 4a 12 3d 9a 30 1e bd 0d 95 d2 3d
       -0.062051293 0.03571589 -0.03862057 0.102823354
0003c0 dd e4 0c bd f1 26 64 bc 30 c0 a9 bd 0d 67 83 bd
       -0.03439795 -0.0139253 -0.0828861 -0.0641614
0003d0 98 6f 31 bd ce 33 30 bd 38 5e 8c 38 4b c8 70 bc
       -0.043319315 -0.043018155 6.69327e-05 -0.014696191
0003e0 0f bd 8c 3d b7 2f 2d bd 7e 3e 78 bd 0c 7d 4d 3c
       0.068719976 -0.042281833 -0.060606472 0.0125420205
0003f0 12 9b 9d bd ed 63 e9 3c 9f 09 8a bd f2 26 9e bc
       -0.07695593 0.028490031 -0.06740116 -0.01930568

conv.1.weight f4 [256]
000000 58 39 36 3f 58 a0 63 3f 20 5b 48 3f be a2 57 3f
       0.7118125 0.8891654 0.78264046 0.842327
000010 33 04 76 3f b5 42 5b 3f 5d a5 62 3f 8a 8c 7e 3f
       0.9610016 0.8564866 0.88533574 0.99433196
000020 00 12 8b 3f b3 20 80 3f 15 c9 65 3f a3 f8 80 3f
       1.0864868 1.0009979 0.8975995 1.0075878
000030 d6 a8 4b 3f df 2f 66 3f 83 3e 40 3f 85 b1 5b 3f
       0.795545 0.89916795 0.75095385 0.8581775
000040 5d 4d 5b 3f 4e 14 55 3f 5b d4 95 3f 6e a3 66 3f
       0.8566492 0.8323411 1.1705431 0.90093124
000050 a9 02 56 3f 38 df 88 3f ae 76 3c 3f b0 3c 41 3f
       0.8359781 1.0693121 0.7361859 0.75483227
000060 48 04 74 3f 14 a2 66 3f ae eb 67 3f 6b dc 5a 3f
       0.9531903 0.9009106 0.90593994 0.8549258
000070 31 e7 45 3f b1 ae 8d 3f 7d 0f 40 3f 3d 8f 59 3f
       0.77305895 1.1068937 0.75023633 0.8498419
000080 a5 82 52 3f 42 38 60 3f 50 f7 6e 3f 83 f3 82 3f
       0.822306 0.8758584 0.9334612 1.0230564
000090 7e 79 50 3f 9e 08 49 3f a6 a2 47 3f 15 c8 5a 3f
       0.8143538 0.78528774 0.77982557 0.8546155
0000a0 c8 9c 6d 3f fb 03 46 3f 7c 4c 00 3f 88 d0 23 3f
       0.92817354 0.77349824 0.50116706 0.6399007
0000b0 8b f9 82 3f 95 d6 2b 3f e3 b6 40 3f 93 7f 4c 3f
       1.0232404 0.671243 0.75279063 0.7988216
0000c0 ea 3e 79 3f e1 6f 74 3f 57 b9 4a 3f a3 09 82 3f
       0.97361624 0.95483214 0.79189056 1.0159191
0000d0 34 62 86 3f 3c 78 87 3f 53 dc 23 3f e6 2b 8e 3f
       1.0498719 1.0583568 0.64008063 1.1107147
0000e0 d9 38 68 3f 88 0c 52 3f c5 c3 84 3f 20 3d 2e 3f
       0.9071174 0.8205037 1.0372244 0.6806202
0000f0 8d d9 64 3f 11 bf 6a 3f d3 38 72 3f 09 aa 7c 3f
       0.89394456 0.91697794 0.94617957 0.98696953
000100 d5 c7 5b 3f ca 53 22 3f ae ca 67 3f d7 f6 28 3f
       0.85851794 0.634091 0.9054364 0.6600165
000110 ab 94 45 3f 7a 8e 5c 3f e9 de 5b 3f cf 2f 4f 3f
       0.77179974 0.861549 0.8588701 0.80932325
000120 5b a3 88 3f 59 92 47 3f e8 91 72 3f 99 c9 84 3f
       1.0674852 0.77957684 0.94753885 1.0374023
000130 88 f8 2d 3f ff 17 5d 3f 0e b1 59 3f 05 56 43 3f
       0.67957354 0.8636474 0.8503579 0.7630313
000140 6f 66 6e 3f 36 d5 4a 3f d9 f0 72 3f 70 be 63 3f
       0.9312505 0.79231584 0.94898754 0.8896246
000150 a7 40 80 3f a8 a0 70 3f 4d 5c 3c 3f 79 b8 2f 3f
       1.001973 0.9399514 0.7357834 0.6864086
000160 a1 b0 52 3f 3f dd 67 3f ce 1c 55 3f 3e 60 1c 3f
       0.82300764 0.9057197 0.8324708 0.61084354
000170 1d d9 69 3f e0 ec 55 3f ba f8 75 3f cc 14 1c 3f
       0.91346914 0.8356457 0.9608265 0.60969234
000180 f0 65 69 3f b2 6c 41 3f 76 81 7c 3f 3d 51 8e 3f
       0.9117117 0.7555648 0.9863504 1.1118542
000190 a4 f3 8a 3f d9 25 89 3f 06 2c 6a 3f ca 41 7a 3f
       1.0855603 1.0714675 0.91473424 0.97756636
0001a0 e6 ef 52 3f 07 cf 7a 3f ea 14 72 3f da 19 86 3f
       0.82397306 0.9797215 0.9456316 1.0476639
0001b0 42 b1 3d 3f 87 51 5a 3f 54 57 64 3f bb 8c 5a 3f
       0.740986 0.8528065 0.8919575 0.8537099
0001c0 21 e7 68 3f 9a aa 90 3f fa 53 66 3f 1c 5b 6a 3f
       0.90977675 1.1302063 0.8997189 0.9154527
0001d0 9b 84 80 3f 6c 98 57 3f 2b 75 8f 3f 2a 05 65 3f
       1.0040468 0.8421695 1.1207632 0.89461005
0001e0 63 8b 36 3f 65 1a 92 3f c3 1f 60 3f cc b7 36 3f
       0.7130644 1.1414305 0.87548465 0.713742
0001f0 de aa 5d 3f 1c dc 1a 3f 70 a1 4c 3f 57 d1 35 3f
       0.8658885 0.6049211 0.79933834 0.7102255
000200 9a 5a 88 3f 0a 73 87 3f 7e bf 45 3f 3b af 36 3f
       1.0652649 1.0581982 0.7724532 0.7136113
000210 cd da 62 3f 40 0b 35 3f 1f b0 75 3f 30 54 3c 3f
       0.88615113 0.7072029 0.95971864 0.7356596
000220 68 37 6b 3f 69 a2 69 3f 8e a5 3c 3f bd 5e 75 3f
       0.9188142 0.91263443 0.73690116 0.95847684
000230 aa 54 50 3f cf 40 4f 3f 44 3c 84 3f cc af 51 3f
       0.8137919 0.80958265 1.0330892 0.8190887
000240 86 f8 8c 3f a2 4f 4f 3f 04 4b 6e 3f c2 90 77 3f
       1.1013343 0.80980885 0.93083215 0.9670526
000250 11 5b 71 3f 87 7f 81 3f c5 58 06 3f 8e 0a 7d 3f
       0.9427958 1.0117043 0.524792 0.9884423
000260 b8 1f 51 3f 94 38 7b 3f b3 78 6b 3f 71 b0 7d 3f
       0.81689024 0.98133206 0.9198105 0.99097353
000270 c1 8c 8a 3f b3 da 40 3f 88 0e 51 3f 76 0a 35 3f
       1.0824205 0.7533371 0.816628 0.7071909
000280 70 3b 79 3f 1b 31 84 3f 72 0b 3c 3f 54 60 64 3f
       0.9735632 1.0327486 0.73454964 0.89209485
000290 a5 35 8b 3f df 87 49 3f cc f4 7e 3f 55 cf 4b 3f
       1.0875746 0.7872295 0.9959228 0.7961324
0002a0 48 55 54 3f aa 99 74 3f a8 c6 52 3f 03 3d 66 3f
       0.8294263 0.9554697 0.82334375 0.89936846
0002b0 b0 f5 84 3f 49 6e 4e 3f 16 36 6f 3f 94 6d 7c 3f
       1.0387478 0.8063703 0.93441904 0.986047
0002c0 26 5f 6e 3f 6e ea 3f 3f 76 13 4d 3f 29 1e 5b 3f
       0.93113935 0.74967086 0.8010782 0.85592896
0002d0 73 64 50 3f 9f ab 58 3f 2c 91 50 3f 08 31 50 3f
       0.81403273 0.84636873 0.81471515 0.81324816
0002e0 d9 f9 52 3f ae 88 3f 3f 85 a3 67 3f 5e ed 67 3f
       0.8241249 0.7481793 0.90483886 0.9059657
0002f0 35 b5 5b 3f 3c 0e 7f 3f a2 d0 6e 3f 68 ee 76 3f
       0.85823375 0.99631095 0.932871 0.9645753
000300 50 6b 7a 3f 86 20 5d 3f 7e df 41 3f 01 dc 80 3f
       0.97819996 0.8637775 0.75731647 1.006714
000310 3e 0e 03 3f 48 9f 41 3f d3 60 59 3f 24 bb 84 3f
       0.51193607 0.7563367 0.8491337 1.0369611
000320 65 da 17 3f 42 a0 25 3f 6f 7e 51 3f 21 8f 76 3f
       0.5931762 0.6469766 0.8183355 0.9631215
000330 4a 10 14 3f 7c 8c 47 3f 16 3f 8a 3f eb 91 76 3f
       0.57837355 0.7794874 1.0800502 0.96316403
000340 9e 29 62 3f 30 3e 5e 3f 12 12 4b 3f 6e 2a 80 3f
       0.8834475 0.8681364 0.7932445 1.0012949
000350 c7 76 7c 3f a3 67 8b 3f 57 b4 7f 3f 30 a6 67 3f
       0.9861874 1.0891002 0.9988455 0.90487957
000360 7a c4 6a 3f 48 a9 5c 3f a0 5d 63 3f 90 05 6c 3f
       0.9170605 0.861958 0.88814735 0.9219599
000370 09 5d 7b 3f 47 45 7f 3f d5 b6 74 3f a7 35 87 3f
       0.98188835 0.99715084 0.9559148 1.0563248
000380 b7 dc 6c 3f 40 06 5f 3f cc ca 63 3f 0c 34 7e 3f
       0.92524284 0.8711891 0.8898132 0.9929817
000390 6c 1c 81 3f 67 26 43 3f 7e cf 99 3f 7f ee 58 3f
       1.0086799 0.7623047 1.2016447 0.84738916
0003a0 10 f8 73 3f 8a 94 3d 3f f4 dd 53 3f 0b d5 95 3f
       0.9530039 0.7405478 0.8276055 1.170564
0003b0 bb b5 7d 3f 67 e9 35 3f af ae 68 3f c4 74 7a 3f
       0.99105424 0.7105927 0.90891546 0.9783442
0003c0 65 7b 61 3f 24 32 5f 3f bb 74 6a 3f 6c 0a 4c 3f
       0.8807891 0.87185884 0.91584367 0.797034
0003d0 0a d8 5f 3f 55 0f 78 3f 1b da 82 3f 09 03 84 3f
       0.87439024 0.96898395 1.022281 1.0313426
0003e0 58 8f 30 3f b9 26 6f 3f 5d 6f 61 3f 40 1e 36 3f
       0.68968725 0.9341846 0.8806055 0.7113991
0003f0 b3 a2 29 3f 2e ce 8a 3f 30 c9 47 3f 8e 12 6a 3f
       0.66263884 1.0844171 0.7804136 0.9143456

conv.1.bias f4 [256]
000000 a2 b7 94 be 83 1a d0 be ad 3a 08 bf ef 16 b9 be
       -0.2904635 -0.40645227 -0.5321453 -0.3615031
000010 84 4f bd be f2 b9 00 bf 2e a7 c9 be 6f c4 b5 be
       -0.36974728 -0.5028373 -0.3938536 -0.3550143
000020 f3 b8 21 bf fa 8c fb be 5d 3d d6 be f5 66 bf be
       -0.63172835 -0.49130994 -0.4184369 -0.37383237
000030 c5 d3 f1 be 5a 48 17 bf ab 4e f0 be aa 28 0b bf
       -0.4723188 -0.59094775 -0.4693502 -0.54358923
000040 10 61 a8 be 54 fd 9c be 50 17 10 bf 09 f2 da be
       -0.32886553 -0.30662024 -0.5628557 -0.42762783
000050 e1 73 e8 be 1a 5c 19 bf 91 b9 1b be e9 c0 76 be
       -0.4540091 -0.5990616 -0.15207507 -0.24097027
000060 e3 2d 0f bf 00 ab f3 be 6b 10 ae be 38 71 6f be
       -0.5592939 -0.475914 -0.339969 -0.23383033
000070 ab f9 13 bf ad 43 0e bf 9c cd ad be 71 fa 68 be
       -0.5780284 -0.55572015 -0.3394593 -0.22751786
000080 c4 10 9d be 86 8b dd be 0f 81 a5 be 41 23 c9 be
       -0.30676854 -0.4327051 -0.32325026 -0.3928471
000090 23 1f ef be 45 5a 58 be 38 e6 08 bf 8d fa a0 be
       -0.46703443 -0.21128185 -0.53476286 -0.31441155
0000a0 72 16 11 bf 88 88 ef be 2b ba 37 be 83 9f a3 be
       -0.56674874 -0.46783853 -0.17942111 -0.31957635
0000b0 41 37 b8 be 97 b9 d4 be 3e 91 00 bf a4 35 8b be
       -0.35979655 -0.41547844 -0.5022162 -0.27189362
0000c0 72 9a db be 06 b3 d3 be 26 99 22 be 4a 50 05 bf
       -0.4289127 -0.41347522 -0.15878734 -0.52075636
0000d0 4f e2 ec be 49 12 f9 be 2a 0e 96 be 91 e0 06 bf
       -0.4626641 -0.48646763 -0.2930768 -0.5268641
0000e0 81 26 d9 be 71 e7 04 bf 6f 46 f8 be 64 51 c2 be
       -0.4241219 -0.5191565 -0.48491237 -0.3795272
0000f0 9c 66 f0 be af 4e d7 be 52 9b ec be 81 42 bf be
       -0.46953285 -0.42052218 -0.4621225 -0.37355426
000100 99 35 e1 be 1e 1a 93 be d8 ff 0e bf 64 28 2c be
       -0.43986204 -0.28730863 -0.55859137 -0.16812283
000110 e2 31 01 bf 9c 78 c6 be b7 b9 d6 be ce 51 10 bf
       -0.5046674 -0.38763893 -0.41938564 -0.56374824
000120 2b 66 01 bf 5b fb cf be 9b 81 b7 be 0e ab ca be
       -0.5054652 -0.40621457 -0.3584107 -0.3958363
000130 78 e1 7a be da 52 11 bf 02 18 d4 be 7e 65 8e be
       -0.24500072 -0.56767046 -0.41424567 -0.27811807
000140 fd 55 e1 be 4b e4 97 be 96 9c 9d be d5 62 92 be
       -0.44010916 -0.2966636 -0.30783528 -0.28591028
000150 3d 33 9a be 4e a1 ed be 33 62 95 be 1b 0f 18 be
       -0.30117217 -0.46412128 -0.29176483 -0.14849512
000160 d3 d0 0e bf dd a7 8e be 79 5c 06 bf ab 02 9e be
       -0.5578739 -0.27862445 -0.5248485 -0.3086141
000170 dc f1 89 be 15 70 e2 be 6d 08 81 be b6 53 d1 be
       -0.26942337 -0.44226137 -0.2520174 -0.4088418
000180 d2 8f 12 bf 5f 9f b3 be 63 fd 05 bf db 3e 0e bf
       -0.572507 -0.35082528 -0.5233976 -0.5556466
000190 16 81 f1 be f4 df fe be 03 1b da be 92 01 05 bf
       -0.47168797 -0.49780238 -0.42598733 -0.5195552
0001a0 82 d6 0e bf 0f 4a c2 be 1b 77 b4 be bc cd 02 bf
       -0.5579606 -0.37947127 -0.3524712 -0.51095176
0001b0 f2 3f b4 be fa 46 d2 be ec 89 fc be 69 00 ad be
       -0.35205036 -0.41069776 -0.49323976 -0.33789375
0001c0 e5 3e aa be 46 e9 f7 be ca d2 ee be b2 32 85 be
       -0.3325111 -0.4842016 -0.46645194 -0.2601524
0001d0 2b eb f0 be 26 59 af be 8f 13 d5 be 11 79 e4 be
       -0.4705442 -0.34247702 -0.41616485 -0.44623616
0001e0 c1 60 a6 be 53 41 aa be e3 40 a9 be 0d 7a eb be
       -0.32495692 -0.33252963 -0.33057317 -0.45991555
0001f0 42 90 dd be af 1b a5 be ef f1 0d bf f3 3c c5 be
       -0.43274122 -0.32247683 -0.55447286 -0.38523063
000200 05 5d c2 be 9e fb e6 be 06 88 de be 13 53 c9 be
       -0.37961593 -0.45113844 -0.43463153 -0.39321193
000210 2f 51 e0 be b4 00 51 be b1 41 0b bf 0c 29 ce be
       -0.43811938 -0.20410424 -0.5439711 -0.4026569
000220 f6 af 33 bf 45 96 cb be a2 31 aa be 18 dd ac be
       -0.7019037 -0.39763084 -0.33240992 -0.3376243
000230 a9 39 e1 be f1 e2 8c be c9 70 e6 be bc 86 c3 be
       -0.43989304 -0.27516893 -0.45007923 -0.38188732
000240 19 08 e4 be a5 4c fc be b3 da 04 bf c8 29 cc be
       -0.44537428 -0.49277225 -0.5189621 -0.39875627
000250 c5 7b bf be 17 57 9f be de 86 b3 be 48 65 cd be
       -0.37399116 -0.31121132 -0.35063833 -0.40116334
000260 d9 81 d9 be 7e 8e dd be 25 21 8b be 1c 46 e9 be
       -0.42481878 -0.43272775 -0.27173725 -0.45561302
000270 e8 6c e8 be 5c f5 d2 be cd 37 eb be 99 4e 7e be
       -0.4539559 -0.4120282 -0.4594101 -0.2483467
000280 88 24 07 bf 40 00 f4 be ff 67 b3 be e6 55 0c bf
       -0.5279012 -0.4765644 -0.3504028 -0.5481857
000290 4a fc 02 bf bf 22 ec be d3 6d db be 64 b0 ce be
       -0.5116621 -0.4612026 -0.42857227 -0.4036895
0002a0 00 35 91 be 00 02 ae be 7f 9f 7f be d2 e5 e9 be
       -0.28360748 -0.339859 -0.24963187 -0.4568315
0002b0 0e a2 f8 be 5d 85 9f be 92 f2 eb be c4 9b c3 be
       -0.48561138 -0.31156436 -0.46083504 -0.38204777
0002c0 9b 43 a1 be 98 98 08 bf 42 38 b8 be 0c 5c 73 be
       -0.3149689 -0.5335784 -0.3598042 -0.23765582
0002d0 7c 54 f4 be cb 73 d8 be e0 74 a9 be 96 fd 95 be
       -0.47720706 -0.42275843 -0.3309698 -0.29295033
0002e0 5b fc 6f be bc 31 f1 be 47 c0 e3 be a7 c4 b9 be
       -0.2343611 -0.47108257 -0.44482633 -0.36282846
0002f0 84 15 ae be 38 1e 0e bf e6 b6 f8 be 52 a3 a8 be
       -0.3400079 -0.5551486 -0.4857704 -0.32937104
000300 c1 49 ca be b8 76 d6 be 46 d9 7b be 06 e0 07 bf
       -0.39509395 -0.4188745 -0.24594602 -0.5307621
000310 c3 c4 af be a0 c0 01 be 7b a4 e2 be 4a f3 f2 be
       -0.34329805 -0.12671137 -0.44266114 -0.4745124
000320 3f e6 51 be 2d dd 84 be b4 bb 01 bf 9c 7e 0b bf
       -0.20497988 -0.25949994 -0.5067704 -0.54490066
000330 ec 9f c2 be 6d 44 b5 be 43 d3 a4 be d2 97 df be
       -0.38012636 -0.35403767 -0.3219243 -0.43670517
000340 cd 72 3f be 0b aa de be e6 2d 7e be ab e1 ec be
       -0.18696137 -0.43489107 -0.24822196 -0.4626592
000350 8f 03 ff be 9d 39 00 bf ce 7a c3 be 55 2c 17 bf
       -0.49807402 -0.5008791 -0.3817963 -0.5905202
000360 11 da d2 be 8b 7f 86 be 84 91 eb be c4 a3 c8 be
       -0.41181996 -0.26269183 -0.46009457 -0.39187443
000370 fa 1e a5 be d9 f5 05 bf 57 e0 e9 be e4 de bc be
       -0.32250196 -0.5232826 -0.4567897 -0.36888802
000380 85 8c cc be 01 bb d1 be 13 6f ad be 50 9b cc be
       -0.39950958 -0.40962985 -0.33873805 -0.39962244
000390 4c af 66 be be 42 e3 be 47 e3 0e bf f6 de 22 bf
       -0.22527808 -0.44386858 -0.5581555 -0.6362146
0003a0 40 6e df be 37 9a a3 be 84 e5 08 bf 89 16 07 bf
       -0.43638802 -0.31953594 -0.53475213 -0.5276876
0003b0 a3 c6 f2 be ce 39 95 be ef b7 a0 be af a9 e8 be
       -0.47417173 -0.29145664 -0.3139033 -0.45441958
0003c0 5f c1 19 bf 18 a2 d8 be f5 8f 9e be 5c fb c5 be
       -0.60060686 -0.42311168 -0.30969205 -0.38668334
0003d0 2b bb c6 be 10 a2 f9 be 0f 30 d7 be 9a 0c cd be
       -0.38814673 -0.48756456 -0.42028853 -0.40048677
0003e0 c4 b0 7d be ea 38 0b bf 03 81 74 be 52 ff c4 be
       -0.24774462 -0.5438372 -0.23877339 -0.38476044
0003f0 75 e5 89 be d0 21 04 bf 7c 0e 83 be 20 99 c5 be
       -0.26932874 -0.51614094 -0.25596988 -0.38593388

conv.1.running_mean f4 [256]
000000 b7 a4 11 3d 92 2c 9e bc ca b3 69 bd 59 6d bb 3c
       0.035557475 -0.019308362 -0.057056226 0.02287929
000010 e7 00 89 bd 60 2f a2 bc ea 94 64 3d d0 b7 26 bd
       -0.06689625 -0.01979798 0.055806078 -0.04070264
000020 f7 34 4a 3d 10 8f a9 bd e5 10 8a 3d 29 2e c3 3d
       0.049366917 -0.0827924 0.067415036 0.09530289
000030 75 79 a2 bd ac 05 a4 3c 8a 3b b1 3d 11 48 04 3c
       -0.07933322 0.020022236 0.08653934 0.008073823
000040 5c 87 8a bd 57 f9 a1 3c 8c 1c 9c bd d4 4c 8f bd
       -0.06764099 0.019772215 -0.076226324 -0.06997076
000050 0a bf 50 bb 41 06 71 3d 1e 9d 0f bd cb c4 0b bd
       -0.003185215 0.058843855 -0.035061948 -0.034123223
000060 95 b6 6c 3d 14 35 2d 3c 15 1d 91 bd 40 3c c4 3c
       0.05779131 0.010571737 -0.07085625 0.02395451
000070 a6 1e 06 bd 97 60 bd bd a4 5f 98 bd 25 75 a9 bd
       -0.032744072 -0.09246939 -0.07440117 -0.08274297
000080 d8 aa f1 3b 23 93 0a bd 60 d3 8f bc b9 9a 72 bb
       0.0073751025 -0.033831727 -0.017556846 -0.0037018491
000090 c6 a1 05 3d f5 03 89 bb 25 a2 42 bd 2e 55 29 3d
       0.032624982 -0.00418138 -0.047517914 0.041341
0000a0 79 8e a9 3d 3f 7b 71 3d 95 8b a0 3d 96 46 52 bd
       0.08279128 0.058955427 0.07839123 -0.051336847
0000b0 b9 24 a8 3d d0 72 81 3d 15 9e 03 bd 69 46 84 3d
       0.08210129 0.06320727 -0.03213318 0.06458742
0000c0 d2 17 a9 bd bf a0 aa ba ae 96 b9 3d 0b 75 19 3d
       -0.082564965 -0.0013017877 0.09061943 0.037465136
0000d0 3f bc 1e bd ca bc bc bd 40 6c 84 bd 95 46 9a bd
       -0.038753744 -0.09215696 -0.064659595 -0.07532994
0000e0 bc 98 ac 3d 7e cd 70 3d 48 38 7b bc 49 b6 9b 3b
       0.08427569 0.058789723 -0.015333243 0.0047519547
0000f0 b9 67 30 3d 91 67 0c 3d 68 32 9a bd 17 c5 65 3c
       0.043067668 0.034278456 -0.075291455 0.014024041
000100 04 0b bf bc 6b 71 08 3d 4c f1 05 3c 0b da 85 3d
       -0.023320682 0.03331129 0.008175205 0.06535729
000110 b7 38 22 3d 34 90 33 bd 31 f9 1f bd dc 35 48 bd
       0.03960487 -0.043838695 -0.039056007 -0.04887949
000120 29 87 38 bb 27 b4 af 3d e2 f7 a1 3b 69 66 0d bc
       -0.0028156734 0.08579283 0.00494288 -0.0086303735
000130 cb 3a 8f bd 64 09 61 bd a0 e1 bc bc 3e 7f a4 3d
       -0.06993636 -0.054940596 -0.023056805 0.08032082
000140 7a 5f a7 bd fc 65 d7 bc 5f ed 01 3d ce 91 df 3a
       -0.081725076 -0.026293747 0.031720515 0.0017057003
000150 f6 b6 17 bd 41 c0 84 bd 67 de a6 3d ee de af bc
       -0.03703972 -0.06481982 0.08147889 -0.021468606
000160 0e d1 7c bd 47 7d 98 3c de d9 74 bd f4 c0 cd bc
       -0.061722808 0.018614424 -0.059778087 -0.025116421
000170 10 38 ad 3d 3f bb b3 3c 48 e4 06 bd 67 9a 86 3c
       0.08457959 0.021939872 -0.03293255 0.016431047
000180 71 5a 5d bd a7 f7 90 bd bb 1a c8 bd dd 63 f2 bc
       -0.05404133 -0.07078486 -0.097707234 -0.029588634
000190 31 fe 23 3d d6 2a b1 3d ab 70 81 3d 4e cd 4b bd
       0.040037338 0.086507484 0.06320318 -0.04975634
0001a0 1d 50 72 3d 20 f4 04 bd bb d8 06 3b 5a 3b 5b 3d
       0.059158433 -0.03245938 0.0020575959 0.0535234
0001b0 38 5d 73 bd 0a 99 1b 3b b2 b6 97 3c 9c e3 8f bb
       -0.059415072 0.0023742341 0.018519733 -0.004391147
0001c0 57 5a 25 3d a1 fd 70 3d 18 09 56 3d b2 37 53 3d
       0.040369358 0.05883563 0.052254766 0.051566787
0001d0 e0 04 b0 bd 7c f5 99 3d 5c 72 13 bd 6a 38 eb bc
       -0.0859468 0.075175256 -0.035997733 -0.028713424
0001e0 a0 d4 a3 3c da 71 f9 bb a9 64 52 3d 8c ca 97 3c
       0.019998848 -0.007612449 0.05136553 0.018529199
0001f0 5c cf a4 bd 2d cf 1b bd c9 87 08 3d 5e 7e b6 3c
       -0.08047363 -0.038039375 0.03333262 0.022277053
000200 5c 71 c2 3c 27 dc 9e 3d d0 b3 5a 3d 3c a5 0a bc
       0.023735695 0.077568345 0.05339414 -0.0084622465
000210 97 11 86 3c ad 51 1c 3c 4e c0 c4 3b 68 76 8a 3d
       0.01636581 0.009540957 0.00600437 0.067608654
000220 99 13 1b bd 6a 56 f2 3c 15 05 5f bc 4d aa 63 3d
       -0.037860487 0.029582221 -0.0136120515 0.055582333
000230 af 8b 7b 3d 40 d3 b8 3c 01 bc a7 3c 69 36 d4 3a
       0.06141251 0.02256167 0.02047539 0.0016190532
000240 f3 5a 99 3d 85 81 27 3c 21 6c 0b bb 8c 25 b3 bd
       0.0748805 0.010223751 -0.0021274167 -0.08747396
000250 0d 97 11 3b d5 2b 87 3d 3c d3 20 3d b3 5c 9f 3d
       0.0022215277 0.06600157 0.03926395 0.07781353
000260 59 b5 1e 3d 4d 0e 1f 39 67 5c 60 3d f5 32 68 3d
       0.038747165 0.00015168749 0.05477562 0.05668922
000270 f4 e9 a8 3b a4 6e 5a 3d 5f 47 5d 3c f4 e4 32 3d
       0.0051548425 0.05332817 0.013505786 0.043675378
000280 08 24 89 bd 55 57 e0 3b 76 75 5f bb 41 fd 58 bd
       -0.066963255 0.0068463483 -0.0034097112 -0.052975897
000290 64 dc ff bb 4d 47 95 bc ee e9 93 3c 9f 85 f9 ba
       -0.007808255 -0.018222475 0.018055882 -0.0019037015
0002a0 73 6a 7f bc bf ca f4 bb 82 ed 11 39 84 11 9b 3d
       -0.015589344 -0.0074704583 0.00013916756 0.075717
0002b0 30 2b 92 3c 9c 7f 02 bb 1d 2c 3a bd 40 99 66 bd
       0.017842859 -0.0019912487 -0.045452226 -0.056298494
0002c0 16 4c 8e 3d 9c 23 77 3d f2 10 e2 3c c5 a2 17 bc
       0.06948106 0.060336694 0.02759597 -0.009255116
0002d0 c2 8a b2 bc b0 01 af bd 98 aa 68 bd 68 5c c5 3d
       -0.02179468 -0.08545244 -0.056803316 0.09636766
0002e0 ce 18 87 3d 65 55 a4 3d 30 27 b3 bc 75 60 8d bd
       0.06596528 0.080241 -0.021869272 -0.06903163
0002f0 96 3c 65 bd 68 65 20 3d e2 20 c6 3c b8 02 03 3d
       -0.055965982 0.03915921 0.024185602 0.031985015
000300 13 96 68 3c 6b b6 8a bd 37 ab be 3c 4f a8 90 3d
       0.014195937 -0.06773075 0.023275001 0.07063352
000310 dd c7 7b 3d b5 15 84 3d a5 3f 64 3d 5e 34 3c 3d
       0.0614699 0.06449453 0.05572476 0.04594838
000320 65 cb 90 bd fb 41 87 3d 40 4d 41 3d 0b 5a a5 bd
       -0.070700444 0.06604382 0.047192812 -0.08073815
000330 60 75 d6 bc bc f7 95 bd 07 8a f8 3a f9 0b ea 3b
       -0.026179016 -0.07322642 0.0018962034 0.0071425405
000340 c5 72 1e 3d e2 54 a7 3c 6f 9f 25 3d d6 2c dc bc
       0.03868367 0.020426217 0.04043525 -0.026876848
000350 b1 d9 9d bd 88 32 8c 3d 65 4b c2 bc 92 20 61 3d
       -0.07707537 0.068455756 -0.023717592 0.054962702
000360 5e 72 ec bc 68 bd 8b 3d 7a 11 9b 3d 5d 3b 87 bb
       -0.028863128 0.06823236 0.07571693 -0.0041269497
000370 f2 9a a0 bd 7d cb 1f bd ef 9c c1 3c f8 68 c4 3c
       -0.078420535 -0.03901242 0.023634402 0.023975834
000380 10 60 29 bd 74 6e 27 bd f0 da 1d bd 1c 07 59 3c
       -0.041351378 -0.04087682 -0.038538873 0.013246324
000390 17 3d b0 bd a8 84 6f 3c 7c 1c 02 bd 06 c1 03 bd
       -0.08605402 0.01461903 -0.031765446 -0.032166503
0003a0 a7 7f 9d bd 22 aa bd bc 24 ac e2 bb 87 70 97 3d
       -0.076903634 -0.023152415 -0.0069174934 0.0739451
0003b0 ed 13 85 bd e7 9e 1d 3d 40 41 01 bd 64 09 da 3d
       -0.06497941 0.03848162 -0.031556368 0.10646322
0003c0 4b 01 06 bd 79 0b 8d bc 36 ec aa bd 36 f7 89 bd
       -0.032716077 -0.017217385 -0.08345835 -0.06736605
0003d0 58 94 34 bd 95 1a 2d bd e1 ed 49 3b 13 6b 2d bc
       -0.044086784 -0.04226168 0.0030811953 -0.0105846105
0003e0 d0 5e 82 3d 19 3c 36 bd f4 e2 4c bd c6 60 78 3c
       0.0636574 -0.044490907 -0.050021127 0.015159791
0003f0 92 79 9e bd 1d 31 ef 3c 35 8b 96 bd a0 f1 0d bc
       -0.077380314 0.029198224 -0.073507704 -0.008663565

conv.1.running_var f4 [256]
000000 84 6f 2b 3f 47 69 0a 3f 05 8f 8e 3e a1 90 f8 3e
       0.66967034 0.5406689 0.2784349 0.48547843
000010 e6 2b 0c 3f 91 59 31 3e e6 2f da 3d e0 ce 0b 3f
       0.54754484 0.17319323 0.10653667 0.5461254
000020 8f d1 4c 3f c7 fb 1c 3f e5 dd 9b 3f 6b db f3 3e
       0.8000726 0.6132168 1.2177092 0.4762834
000030 4d 5b 04 3f b4 f7 07 40 6f dc 05 3f be fe f4 3e
       0.51701814 2.1244936 0.5228948 0.47850603
000040 8b 9f 0e 3f 49 20 13 3f d1 4d 23 3f ad 38 6a 3f
       0.55712193 0.5747114 0.63790613 0.9149273
000050 27 fe 81 3f 3e 7c 41 3f 8d 2f 3b 3f 3d 99 7d 3f
       1.0155686 0.75580204 0.7311943 0.9906195
000060 b2 ff 45 3f 6f 5a 6b 3f b8 7b 1e 3f 9c 4d 98 3f
       0.77343285 0.91934866 0.6190753 1.1898685
000070 64 a2 c6 3e a4 4d 02 3f 63 6c 34 3f 76 0a 70 3e
       0.3879577 0.5089972 0.70477885 0.2344149
000080 eb f8 d5 3e c7 c5 62 3e a7 d0 18 3f 74 c4 3c 3f
       0.41791472 0.22145759 0.5969338 0.73737264
000090 50 ee 0a 3f 31 38 18 3f 67 02 0c 3f d7 c2 99 3f
       0.54269886 0.5946074 0.54691166 1.2012585
0000a0 9d fa b2 3f d1 d9 da 3f 23 1d e7 3e 36 14 fe 3e
       1.3982731 1.7097722 0.45139417 0.49624795
0000b0 0b 38 7d 3f 76 bc a3 3f 6d 90 1b 3f bd 8e 16 3f
       0.9891364 1.2791889 0.6076725 0.5881155
0000c0 d5 e3 c2 3e 29 b0 62 3f fb 1a 2b 40 94 45 dd 3e
       0.38064447 0.8855005 2.6735218 0.43217146
0000d0 a9 2f 50 3f 49 54 1d 3f 8c 80 e8 3f 97 5d 4b 3f
       0.81322724 0.61456734 1.8164229 0.7943968
0000e0 3f 42 ee 3e dc 52 de 3e 55 9f 40 3f 7d c1 64 3f
       0.46534917 0.43422592 0.7524312 0.8935774
0000f0 9d 87 cd 3e cb d3 9b 3f 7d 15 f1 3e 98 e2 1a 3f
       0.40142527 1.2174009 0.47086707 0.60502005
000100 ac 26 76 3e 08 86 87 3f fd dc 00 3f dd 59 09 3f
       0.2403819 1.0587778 0.503372 0.53652745
000110 2d 42 85 3f 62 31 00 40 cd 99 24 3f 6b af be 3e
       1.041082 2.003014 0.6429718 0.37243208
000120 85 65 3b 3f 27 c9 07 3f 80 29 17 3f 3d 6c 3e 3f
       0.7320178 0.5304131 0.590477 0.7438391
000130 aa 1f 2a 3f 6f 20 c5 3e e4 f2 41 3f 70 f1 a5 3f
       0.66454566 0.38501307 0.75761247 1.2964306
000140 57 8c ad 3e 76 a0 6a 3f b0 7a 83 3f 0f 3d 6b 3f
       0.33896133 0.91651094 1.0271816 0.91890043
000150 f9 5e f2 3e aa 75 a7 3e 27 63 d6 3e 63 2a 83 3f
       0.47338083 0.32706958 0.41872522 1.024731
000160 dc ab 0c 40 95 d3 b9 3e 38 82 cc 3e 9a 11 ea 3e
       2.1979895 0.36294237 0.399431 0.45716554
000170 d1 8e a9 3e a3 af 70 3f d1 a2 a5 3f e0 e3 df 3e
       0.33116773 0.94018 1.2940313 0.43728542
000180 94 57 c0 3e 9a e5 2f 3f 93 a2 44 3e 7a bb 93 3e
       0.37566817 0.6870972 0.19202642 0.2885397
000190 85 11 fb 3e 22 65 23 3f 9e 1f 41 3f 76 38 f8 3e
       0.49036804 0.6382619 0.7543887 0.48480576
0001a0 00 b9 c4 3e 01 94 ca 3e 1b a2 65 3f 8a 8d 8f 3f
       0.38422394 0.39566043 0.8970048 1.1215069
0001b0 8a cd 79 3e f2 9d 38 3f 18 0e 20 3f 0b 9c 74 3e
       0.24394813 0.72116005 0.62521505 0.2388765
0001c0 d7 5d 0a 3f c6 8a 1b 3f fc 99 db 3e dd 23 d9 3f
       0.5404944 0.60758626 0.42890918 1.696407
0001d0 50 06 77 3e 48 80 1d 3e d1 12 6a 3e b4 83 ca 3e
       0.24123502 0.15380967 0.2285874 0.39553607
0001e0 38 d8 a3 3e 1c 90 83 3f b0 71 a0 3e 85 45 06 3f
       0.320009 1.0278354 0.31336737 0.5244983
0001f0 f7 68 e5 3f b5 6d 51 3f 82 c1 bb 3f fa 21 6e 3f
       1.7922658 0.81808025 1.4668429 0.93020594
000200 47 c6 b0 3e f3 7c 23 3f a4 74 58 3f 9f ee ba 3e
       0.34526274 0.6386253 0.8455298 0.36510178
000210 c1 05 0f 3f f8 d8 16 3f d0 73 d4 3e 27 39 45 3f
       0.55868155 0.5892482 0.41494608 0.7704033
000220 ea 66 32 3f 76 fd 8a 3f 9e b1 24 3f 38 84 55 3f
       0.69688284 1.08586 0.6433352 0.83404875
000230 b6 38 9b 3e e6 73 82 3e 13 b6 f3 3e 52 e2 a1 3e
       0.30316705 0.25479048 0.4759985 0.3161798
000240 83 e1 99 3f d0 1e 86 3f 8c 95 8a 3e c2 47 82 3f
       1.2021946 1.0478153 0.2706722 1.0178149
000250 a6 e7 05 3f b4 3e 98 3e c7 fe 3b 3f ec 85 9e 3f
       0.5230659 0.2973534 0.73435634 1.238462
000260 c2 bd 86 3f 38 31 62 3f f5 bd b3 3e ae 74 8e 3e
       1.052666 0.8835635 0.35105863 0.27823395
000270 e2 ef dd 3e 74 73 e6 3e a1 4b 89 3e 76 4d e4 3e
       0.4334708 0.4500996 0.26815513 0.44590348
000280 fb 35 6e 3f ec a4 1a 3e 84 29 71 3f d7 e3 45 3f
       0.9305112 0.15101975 0.9420397 0.7730078
000290 95 9d d0 3e 66 8e 87 3f af c0 fc 3e 81 6c 17 3f
       0.40745226 1.0590332 0.49365756 0.5914994
0002a0 3e 76 16 3f 55 b9 ab 3f 81 d7 4c 3f a5 2f b4 3e
       0.58774173 1.3415934 0.8001633 0.351926
0002b0 85 11 49 3f 96 9b e2 3e 71 fd 27 3f 8a bf 03 3f
       0.7854236 0.44259328 0.65621096 0.5146414
0002c0 89 80 8b 3f 02 ae 1d 3e 03 4c 2c 3f 92 71 3f 3f
       1.0898601 0.1539841 0.67303485 0.7478267
0002d0 e9 9a 81 3e 80 83 f7 3e 54 b5 c3 3e e1 8f b4 3f
       0.253135 0.48342514 0.3822428 1.4106408
0002e0 48 f3 8e 3e f6 e3 85 3e eb 63 9a 3e 06 25 99 3f
       0.27919984 0.26150483 0.30154356 1.1964424
0002f0 b4 42 51 3f 2f 51 0f 3f 44 6f 95 3f 06 a2 91 3f
       0.81742406 0.5598325 1.167458 1.1377571
000300 50 d8 01 3f 89 40 ee 3e 5a 26 43 3f 3e d3 80 3f
       0.5072069 0.4653361 0.76230395 1.0064466
000310 81 b2 5f 3f ad da 65 3e c6 18 7f 3e 01 92 b6 3e
       0.8738175 0.224467 0.24911794 0.35658267
000320 e3 6e 0e 3f 22 27 14 3f cb 69 ac 3e 31 1f 14 3f
       0.5563795 0.5787221 0.33674464 0.57860094
000330 ff 1e c3 3f 5d ee 65 3f be e4 ab 3e 5a 80 72 3f
       1.5243834 0.8981684 0.33572954 0.947271
000340 6b 59 6d 3f 02 ae 02 3f e4 6f 98 3e 74 b3 6e 3f
       0.92714566 0.51046765 0.29772866 0.93242574
000350 5f 15 11 3f 21 d4 df 3e 8a 21 21 3f 21 83 bf 3e
       0.56673235 0.4371653 0.629418 0.3740473
000360 47 9c 5e 3f b7 6d be 3f 35 8d 58 3f e6 f1 31 3f
       0.8695721 1.4877232 0.84590465 0.6950973
000370 b0 4d 87 3f 13 7c 8b 3f 40 75 35 40 ca 86 ab 3e
       1.0570583 1.089724 2.8352814 0.33501273
000380 21 d3 19 3f 30 b2 8e 3e dd fb cd 3f ba 57 c0 3e
       0.6008778 0.2787032 1.6092488 0.3756693
000390 75 ca b6 3e 9e 11 ae 3e 23 04 05 3f 18 08 af 3e
       0.35701337 0.33997816 0.5195944 0.34185863
0003a0 8e 9a c1 3e 0a d9 1f 3f e0 9f 1c 3f 77 40 4c 3f
       0.37813228 0.6244055 0.6118145 0.79785866
0003b0 f8 73 30 3f ed 33 b7 3e 7f 5b ca 3e 0c 15 a2 3e
       0.68926954 0.35781804 0.3952293 0.31656682
0003c0 90 0d 16 3f 32 c6 b4 3e 19 5b ed 3e ab 19 83 3e
       0.58614445 0.3530746 0.46358564 0.2560552
0003d0 d0 10 18 3f b4 ac bb 3e 5f 6f 8a 3e a6 cc 0c 3f
       0.59400654 0.366552 0.27038094 0.5499977
0003e0 f0 39 a9 3f 43 b7 77 3e ea 56 09 40 33 55 fd 3e
       1.3220806 0.24191003 2.1459298 0.49479064
0003f0 36 2e 5c 3f 70 28 8c 3f 03 e3 c3 3e c4 5b 4e 40
       0.8600801 1.094984 0.38259134 3.224351

conv.4.weight f4 [256, 256, 3]
000000 c7 6e 13 3d 7f ea 08 3e c0 1a 22 3c 25 71 c6 bc
       0.035994317 0.13370703 0.009894073 -0.024223873
000010 07 64 cb bd 23 14 06 3d ac 26 ad 3c 93 07 fb bd
       -0.09931188 0.032734048 0.021136604 -0.12257304
000020 19 3d 00 bc a3 97 da bb ed f8 37 3d 59 2b 85 bc
       -0.007827067 -0.0066709085 0.04491513 -0.016256021
000030 21 78 f1 3c e1 6a 17 bd 3a 0b ca bc 4c 80 b4 3c
       0.029476227 -0.036967162 -0.024663556 0.022033833
000040 7b d0 2f be d2 b3 11 3d b3 51 bf 3c 87 b0 21 3e
       -0.17169373 0.03557188 0.023354387 0.15789996
000050 fd c0 07 bd b7 ab ee bb 19 6b 3f 3d de 9d ac 3c
       -0.033143032 -0.0072836536 0.046732996 0.02107137
000060 f1 c7 d5 3c 47 35 bf be 63 99 ad bc ad 8c e4 bb
       0.026096316 -0.37345335 -0.021191305 -0.0069747777
000070 98 9a 08 3e e1 49 26 bc d7 6b 43 bc 31 24 7b 3c
       0.13340223 -0.01014945 -0.0119275665 0.015328453
000080 a7 d6 0d 3d 0d 35 eb 3b 34 a0 91 bd df 84 b6 3c
       0.034628537 0.007177955 -0.071106344 0.022280155
000090 29 b8 53 bc 87 d1 68 3c a3 bd 29 3c 89 cb 01 3d
       -0.012922325 0.014210111 0.010360154 0.031688247
0000a0 ef b7 a3 bd f7 ab 6a 3b 0f 87 ff bc 1a fe 22 be
       -0.07994067 0.0035808065 -0.03119233 -0.15917245
0000b0 af 72 03 3d b4 81 b4 3c f1 73 6b bd f6 3b a8 3c
       0.032091793 0.022034504 -0.057483617 0.020536404
0000c0 ad 88 95 3c fa d1 bd bd e0 f2 ce bc 71 d5 63 3c
       0.018253649 -0.092685655 -0.025262296 0.013905869
0000d0 bc 00 07 3b d7 d4 01 bd f4 81 13 3d ee 1c 84 bd
       0.0020599803 -0.03169712 0.036012605 -0.064508304
0000e0 6d 4e 09 bd 19 0c e5 3c f2 72 19 be 4f b7 ba bc
       -0.03352206 0.02795987 -0.14985254 -0.022792486
0000f0 e5 20 e6 bb 68 e1 27 3d 2a 65 d1 bb b2 79 62 3c
       -0.0070229643 0.04098645 -0.0063902335 0.01382296
000100 e2 2b 3e 3e db 63 fc bb 16 3c 04 bd 40 08 0b 3d
       0.18571427 -0.0077023334 -0.032283865 0.033943415
000110 28 38 12 3d ef 15 26 3c ae bc eb 3c f5 0e 0d bd
       0.035698086 0.010137065 0.028776493 -0.034438092
000120 dc 88 78 bc 43 5a 46 be a5 2a 21 bc 3a 6a ff bb
       -0.015169349 -0.1937037 -0.009836827 -0.0077946456
000130 f9 da 89 3d e3 f2 09 bd 9a 99 ef bc 6f 69 93 3d
       0.06731219 -0.0336789 -0.029248048 0.07197844
000140 fe 50 80 bc 78 67 a9 3c a2 cf 76 3b 4d 21 33 bc
       -0.01566362 0.02067922 0.003766038 -0.0109332325
000150 e4 fb c8 3c a8 a1 1c bb 0f 7e d4 bc eb 32 af 3c
       0.024534173 -0.0023900066 -0.025939016 0.021386584
000160 ff fe f8 bd 82 36 1a 3c 61 82 1f bc e9 b7 5f bb
       -0.12158012 0.00941241 -0.009735675 -0.0034136719
000170 df aa 84 bb 68 6d 8b ba 8b 88 93 3c 97 d2 e5 3b
       -0.0040486897 -0.0010637464 0.018009445 0.0070136297
000180 d3 4f eb bb 5e 27 f3 bd c2 b3 ba bc 3c 4c 04 3d
       -0.0071811466 -0.11872743 -0.022790793 0.032299265
000190 0d a6 19 bf f8 98 89 3c 3a aa 03 3d bd 48 f2 bc
       -0.60019 0.016796574 0.032144763 -0.0295757
0001a0 93 2c db 3c 98 ba 65 bc 9b 41 02 bc 4c 4a b5 bc
       0.026754653 -0.014021538 -0.007950212 -0.022130154
0001b0 2c 21 a5 3c f9 62 3f bd 9c 22 bc bb bf 3b da 3c
       0.02015742 -0.046725247 -0.0057414304 0.026639817
0001c0 2d 82 8b 3d ed 3e 10 3d cc 1b 7c 3c ab 7f 9b 3d
       0.068119384 0.03521626 0.015387487 0.0759271
0001d0 16 71 f4 bc cc 6c 82 3c 1b 4b a2 3d bc ca 31 b9
       -0.02983908 0.015921019 0.079244815 -0.0001695556
0001e0 3b fd 01 3c b7 8a bd 3c cc b2 0e bd 07 19 f1 3b
       0.00793391 0.023137433 -0.034838483 0.00735772
0001f0 89 3f 2a 3b c4 9b 0b bd c8 3e 5d 3c c3 86 c1 3d
       0.0025977811 -0.034084097 0.013503738 0.09449532
000200 4a 72 a3 bc c8 13 d4 3a 5c f6 f7 3d 2b 74 a5 3c
       -0.019951958 0.0016180212 0.12107536 0.020196995
000210 85 a6 ae 3c ee 75 c5 bd c4 59 54 3c bf d1 a6 bc
       0.021319637 -0.09641634 0.012960855 -0.020363687
000220 d6 02 96 bd f9 76 b0 bc 8b c3 b0 3c 87 1c 68 3e
       -0.0732476 -0.021541106 0.021577617 0.22667132
000230 7b fb c0 bc 55 d5 bc bc 71 ce f3 3c 98 57 36 3c
       -0.023557415 -0.023050943 0.029761525 0.011129282
000240 aa 53 3d bb 27 53 19 3e 40 6d 55 3c 37 b4 0c bd
       -0.002888898 0.14973126 0.0130265355 -0.034351554
000250 36 1a 59 bd e2 c1 9a 39 ad 2d 25 3b 09 77 79 3d
       -0.053003512 0.00029517623 0.0025204227 0.060904536
000260 71 8a e5 bc 1c 3b de bc 0f 02 af bd 5a 22 af bc
       -0.028020116 -0.027127795 -0.085453145 -0.021378685
000270 cb 9e 04 bd 5a 6a 7b 3d 6d 6d c0 3c f6 53 c2 bc
       -0.032378 0.06138072 0.023489678 -0.023721676
000280 99 76 40 3c 98 3f a5 3c 51 06 d9 3c 00 11 5f bd
       0.011747026 0.020171925 0.02649227 -0.05445957
000290 d9 91 e6 bc 67 a3 b1 3b 18 3b fa bc 82 06 7c 3c
       -0.028145717 0.0054210904 -0.030545756 0.015382411
0002a0 4e fe 97 3b d5 bb f2 3d 66 68 b3 3c 05 75 35 bc
       0.00463847 0.11852232 0.021900367 -0.011075263
0002b0 b1 88 dc bd 2c 5d 82 3c c3 6f 08 bd fe 74 80 3e
       -0.10768259 0.015913568 -0.03330971 0.25089258
0002c0 d5 10 97 3b 19 09 de 3c 25 5b 12 be a1 f6 bc 3c
       0.004610161 0.027103947 -0.14292581 0.02306682
0002d0 d6 cc d0 bc 57 68 01 3d 89 35 03 3d f2 49 07 bd
       -0.025488298 0.031593647 0.032033477 -0.033029504
0002e0 88 56 60 3c d3 2e f3 3a e9 8e c0 3b f9 7c 97 bd
       0.013692506 0.0018553383 0.005876411 -0.073968835
0002f0 c8 0e 93 bc 37 68 c5 bc a7 c4 30 be b8 30 72 3c
       -0.017951384 -0.024097545 -0.17262517 0.014782123
000300 c4 83 c5 bc c7 77 8a bb 29 3e 9f 3c 18 78 10 bd
       -0.024110682 -0.0042257044 0.01943882 -0.03527078
000310 ea 13 10 be 77 ff 4b bc e7 2a b3 3c dd a9 0c be
       -0.14070097 -0.012451044 0.021871043 -0.13736673
000320 3d 9a 90 bc 40 58 d5 3c bb 30 2c bc b9 5c bf 3b
       -0.017651672 0.026043057 -0.010509665 0.005839911
000330 2f 5a c1 3c a3 8b f5 3c 4a 49 d0 bc 88 2f fa 3c
       0.023602573 0.02997381 -0.025425572 0.030540243
000340 49 a2 5c 3d 3d d5 d5 bc 73 e4 b4 3b 1b 43 31 bd
       0.053865705 -0.026102656 0.0055203973 -0.043276887
000350 99 ce 33 3c 1d 1e a4 3c 55 4b c2 3c 87 ee 97 bc
       0.01097455 0.02003389 0.023717562 -0.018546356
000360 39 ff 0c 3c e5 84 2e be 3e bf a9 3b be 31 db bc
       0.008605772 -0.17042883 0.0051802685 -0.026757117
000370 c5 49 b3 bc ec 47 02 bd d8 47 a0 bc b9 bc 5c 3d
       -0.021885762 -0.03180687 -0.019565508 0.053890917
000380 0d e7 e5 bb c0 d8 a3 bc 33 ea 07 3e 13 74 6c ba
       -0.007016069 -0.020000815 0.13272934 -0.0009019982
000390 7c a2 91 3c 02 e0 e6 3c 75 99 f6 3c ce d9 04 bd
       0.017777674 0.028182987 0.03010247 -0.032434277
0003a0 36 4b d1 3d 71 0e 59 bc 0f 47 da bb 04 62 0c 3e
       0.102194235 -0.013248072 -0.006661303 0.13709265
0003b0 5b 8d d0 3c e6 53 bc 3c 90 42 d8 3d ff 30 f2 3c
       0.025458029 0.022989225 0.10559571 0.029564379
0003c0 b5 04 8d bc 18 c7 ea 3d 97 8b c1 bc e5 d6 a6 3a
       -0.017214159 0.11463755 -0.023626132 0.0012728838
0003d0 7a dc 52 bd 18 28 d1 bc b2 1d 0d 3a fd 48 14 3c
       -0.051479794 -0.025531814 0.0005383148 0.009050605
0003e0 10 5a 04 3d 53 c0 a7 3c f6 c4 26 be 5a 50 8f 3c
       0.032312453 0.02047745 -0.16286072 0.01749437
0003f0 d5 fe 3e bb bc 1d d1 bd c5 83 0b 3d c3 1c ff bc
       -0.002914359 -0.102107495 0.034061212 -0.031141644
