ml/fallnet.pt (torch, 313165 bytes, 8 tensors)

net.0.weight f4 [256, 42]
000000 29 58 11 bf 57 3e 3a 3e 8a f0 9c 3d 28 6a 4f bf
       -0.56775147 0.18187843 0.07663067 -0.81021357
000010 7b 3b 6f 3e e6 eb 2e 3e 86 14 8b bd d1 a0 e4 be
       0.23362534 0.17082176 -0.06791024 -0.44653943
000020 40 dc 01 3e 52 59 8c 3e 50 13 0b bf 38 cc d0 bd
       0.12681675 0.27411896 -0.54326344 -0.10195202
000030 f3 9e 98 be 81 ee ec 3d 73 f9 15 bd 9e b9 63 be
       -0.2980877 0.115689285 -0.036614846 -0.22238776
000040 10 86 03 3e 46 64 85 3e 32 74 b4 be 7c 9d b4 be
       0.1284411 0.26053065 -0.352449 -0.352764
000050 32 b9 97 bd 87 a3 3f 3e a9 82 9b bd 4e 13 43 3e
       -0.0740837 0.18714724 -0.07593281 0.19050333
000060 df df c1 bd 8a 98 b6 bd 49 40 0a 3e 87 37 39 bc
       -0.09466528 -0.08915813 0.13501085 -0.011304743
000070 1c 59 cc 3c f4 d4 10 3e 8e 5b 54 3d a7 39 c1 be
       0.024944834 0.14143735 0.051845126 -0.37739298
000080 a6 da 5f bd 35 59 23 3e 41 46 11 3d a8 3f 87 3e
       -0.05465188 0.15951999 0.03546739 0.26415753
000090 28 46 a5 3e dc df ad be 04 45 9d 3e 9f 1c c8 3d
       0.32280087 -0.33959854 0.30716717 0.09771084
0000a0 6e d2 07 be 46 b0 b1 3c 13 be 9d bd b4 68 ac be
       -0.13263866 0.021690499 -0.077022694 -0.33673632
0000b0 13 2e 38 be 71 e0 30 3e fe 5a 19 3d 2f 0d 19 3e
       -0.17986326 0.17273118 0.037440293 0.14946435
0000c0 31 a6 75 3d 4a 58 c7 be 75 a2 82 3e a3 4b 86 be
       0.059972946 -0.38934547 0.2551457 -0.2622958
0000d0 0b 3d 0c be 7b 73 0c 3e e1 df 39 be 09 19 d3 3d
       -0.13695161 0.13715927 -0.1815181 0.103075095
0000e0 45 55 b7 3e c1 72 0a bf da de 81 bf de f7 80 be
       0.35807243 -0.5408135 -1.0146134 -0.25189108
0000f0 f6 bc 12 bd 25 20 80 3d b1 53 1f be ba 96 c9 bc
       -0.03582474 0.06256131 -0.1555927 -0.024608005
000100 a2 de a5 bd 78 4c f9 3d 40 b0 8b be 51 9f 66 3c
       -0.080991045 0.121727884 -0.27282906 0.01407607
000110 2b b9 8a be aa e4 f9 3d 48 03 0b bd f4 be 8e 3c
       -0.27094397 0.12201817 -0.033938676 0.017425038
000120 c0 4a 64 3e 7d dd cb 3b 34 b1 8c 3d db 8a 9c 3e
       0.2229414 0.006221472 0.06869736 0.30574688
000130 61 7a 09 3e 46 6b 1d bd 25 9d 45 be a3 77 c0 be
       0.1342559 -0.038432382 -0.19298227 -0.37591276
000140 72 c8 69 3d 9c d7 89 3d 4c 40 03 be 35 ca 99 be
       0.057075925 0.06730577 -0.12817496 -0.30037084
000150 29 03 33 3d 3e a2 0d 3e 6f c2 a8 be aa 26 47 be
       0.043704186 0.13831422 -0.3296084 -0.19448343
000160 85 51 8f bc 51 18 94 3c b4 09 a9 3e cc 54 fa 3d
       -0.017494926 0.018078001 0.33015215 0.12223205
000170 13 9d e2 3e 58 23 b3 3e 63 4c 97 3d e7 e9 c8 bd
       0.44260463 0.34987903 0.073876165 -0.09810238
000180 e3 1a 97 3e 44 af af 3d d9 20 a4 3e c7 12 70 3e
       0.295127 0.08578351 0.3205631 0.23444663
000190 88 26 7e bd 1c c1 c8 be e8 62 09 be 09 21 39 bd
       -0.062048465 -0.3920983 -0.13416636 -0.04519752
0001a0 4e 71 e4 3e 18 6c b5 3e 47 36 0f be a0 5f 78 be
       0.44617695 0.3543403 -0.13985549 -0.24255228
0001b0 6e df 3b bf d9 0d 26 3e 70 df 16 be 23 06 0d be
       -0.733878 0.1621622 -0.14733672 -0.13771872
0001c0 8a 78 47 3e 1b 78 12 be 9c a7 1f be 8a 62 30 be
       0.19479576 -0.14303629 -0.15591282 -0.1722509
0001d0 db f9 38 3d f8 e4 c6 bc 75 72 a8 bd ee c2 a2 be
       0.045160156 -0.024279103 -0.08224956 -0.31789345
0001e0 bd 33 3f bc 81 4d bf 3d 62 3b 60 bd 3a 35 97 be
       -0.01167005 0.093409546 -0.054744132 -0.29532796
0001f0 f8 67 49 be f4 dc 86 3e 20 23 75 3e 35 c8 82 3e
       -0.19668567 0.2634045 0.2393918 0.2554337
000200 8e 98 86 3d 39 6e 89 be 9c e8 e3 3d 8f c1 8a 3c
       0.06572066 -0.26841906 0.11128351 0.016937999
000210 27 ca 12 bf 7e fd 09 be 8c 97 53 bc 31 a6 8a be
       -0.5733971 -0.13475606 -0.01291455 -0.2707992
000220 32 37 99 3d 9d 83 20 bf fd a5 45 be cc 74 a6 3e
       0.07481231 -0.62700826 -0.19301601 0.32510984
000230 91 62 f2 3c 1c c3 ee be b0 91 62 be 3b de ba 3d
       0.029588016 -0.46633232 -0.22125888 0.09124418
000240 4b d2 8c bd d8 ae af be 7f f1 5e be 8f 02 5b 3e
       -0.06876048 -0.34313083 -0.21771811 0.21387695
000250 b5 07 82 bd 31 e3 9a be 82 93 ef bd 87 41 59 3c
       -0.06349126 -0.30251458 -0.11698057 0.013260252
000260 85 e0 78 3e 39 c6 fd bd 08 5b 5c 3d 81 6b c9 bc
       0.24304397 -0.123913236 0.05379775 -0.024587395
000270 86 0d e9 3d 1b d8 90 be 74 91 10 be 7e 00 2a bf
       0.113795325 -0.28289875 -0.14117986 -0.66407
000280 b0 9c 08 3d f1 b6 8e be 98 92 f0 3d 6d 11 bd bd
       0.033352554 -0.27873948 0.117467105 -0.09231839
000290 4e 8b 8c be 0f 06 0f bd a5 23 9d be c5 b6 9a 3d
       -0.2745003 -0.034917887 -0.30691257 0.07554392
0002a0 5a 15 5d be bd b1 07 bc 52 3f 2a be 0f 61 d3 bd
       -0.21590176 -0.008282122 -0.16625717 -0.10321247
0002b0 9e 88 de 3d 43 fe 2d 3d 0d 2f 69 3f eb f7 3b be
       0.108659014 0.04247881 0.9108742 -0.18356292
0002c0 43 63 85 3c 38 00 49 3e 8a 1c 09 3f a9 2f 1a be
       0.016282683 0.1962899 0.5355917 -0.15057243
0002d0 64 1f 26 be 6a a2 8b 3e 50 cd ae be f6 4c bf bd
       -0.16222912 0.2727235 -0.34141016 -0.09340851
0002e0 0c e5 91 3d 18 eb 30 bf 38 35 34 3d dc 80 a6 be
       0.07123765 -0.69108725 0.043996066 -0.32520187
0002f0 e7 0f 99 be 88 e8 68 3e 95 c6 24 be 7d c9 f3 3d
       -0.29894945 0.22744954 -0.16091378 0.11903665
000300 e1 94 b5 bd 92 a9 bd 3d e6 d7 a8 bd d2 2e 19 bd
       -0.08866287 0.092608586 -0.08244304 -0.037398167
000310 46 ed b8 3e 3f 0a 08 3e 4e 2d 10 be d6 0c 93 bd
       0.36118525 0.13285159 -0.14079782 -0.07180183
000320 f3 7e 0b 3f 8f 7d 39 bd 39 3f b9 be bf 9d d6 3d
       0.54490584 -0.045285758 -0.36181048 0.104793064
000330 43 2a ec 3c bc cd 09 bd 21 4a 88 3d e2 88 65 bc
       0.028828746 -0.03364347 0.06654764 -0.014009686
000340 38 f5 60 be 9a 36 1d 3e 25 9c 4b bd dd d4 02 bf
       -0.21968544 0.1535286 -0.049709458 -0.51106054
000350 1b c1 57 3e c7 cf 3a be 48 f6 18 3d ba 9b 9b be
       0.21069758 -0.18243323 0.037344247 -0.30392247
000360 6b fa eb be 32 6c 1c 3e 3b 62 19 3f 10 d0 ce be
       -0.4608949 0.15275648 0.5991551 -0.40393114
000370 7b 60 0a bf 0a 10 ba bd 7d 30 c8 bb e8 68 a9 be
       -0.5405347 -0.090850905 -0.006109296 -0.3308785
000380 0e 59 35 3f c9 18 bc bd 9b 68 e3 bd 52 19 4d 3e
       0.7083901 -0.09184415 -0.11103936 0.2002919
000390 93 63 b8 be ae 76 10 3d 1c b7 3d 3e 46 26 80 bd
       -0.3601347 0.03526943 0.18526882 -0.062573
0003a0 72 2d 51 3c 8a c7 f1 be 69 5c 91 3d 9b e9 9b be
       0.012767183 -0.4722255 0.07097704 -0.30451664
0003b0 50 75 7d 3e 91 0e 0d be 2f 99 dc be 1a c7 85 3d
       0.24751782 -0.13775088 -0.4308562 0.06532116
0003c0 92 b0 2b 3e 2b 45 4f 3e 26 2f 1f be 56 9d 22 3d
       0.16766575 0.20241229 -0.1554533 0.03970083
0003d0 c1 29 01 3c 14 cb 36 3e df 62 ac bd b0 32 8c be
       0.00788349 0.17850906 -0.08417296 -0.27382421
0003e0 1c c9 a5 3e ff e6 03 be 42 3d 37 3e 84 a7 17 3c
       0.32379997 -0.12881087 0.17894462 0.009256247
0003f0 52 51 7c be bb eb ee 3e d6 a3 a5 3e 93 9f bb be
       -0.24640396 0.46664223 0.3235156 -0.36645183

net.0.bias f4 [256]
000000 7c c3 57 bf ed d4 0c bf 9c 64 c5 be 82 7b f7 be
       -0.8428266 -0.550124 -0.3855332 -0.48336416
000010 34 ad c3 be b7 80 99 be b0 31 c8 be ec 11 bd be
       -0.3821808 -0.29981014 -0.3910041 -0.36927736
000020 25 0d c0 be a3 53 3f bf 8f c9 f3 be 47 9c 8e be
       -0.37510028 -0.74736995 -0.47614715 -0.27853605
000030 1a 06 3b bf 10 3c 29 bf 99 e9 09 bf c1 de 3b bf
       -0.73056185 -0.66107273 -0.53872067 -0.7338677
000040 da 92 e1 be cb a5 f2 be bb c6 8a be e5 53 b5 be
       -0.4405735 -0.47392115 -0.27104744 -0.3541557
000050 f5 dd 6b be 60 80 b3 be 82 1d ce be 70 61 02 bf
       -0.23033889 -0.3505888 -0.40256888 -0.5092993
000060 d5 07 f4 be 2a 63 cf be 35 bc 09 bf 1c 2a 6d bf
       -0.47662225 -0.40505344 -0.53802806 -0.9264238
000070 7c 37 24 be c7 7b 89 be 70 34 0c bf d6 f0 66 be
       -0.1603679 -0.26852247 -0.54767513 -0.22552809
000080 96 ec 2b bf 73 00 c0 be 04 f9 18 bf d7 49 5c be
       -0.67157876 -0.37500343 -0.5975497 -0.21512543
000090 8f 80 44 bf 8d 15 ff be 92 9f 12 bf 64 28 03 bf
       -0.76758665 -0.4982113 -0.57274735 -0.51233506
0000a0 c0 76 1d bf 7c 23 c0 be a5 0d 7f be 5e c5 09 bf
       -0.61509323 -0.37527072 -0.24907549 -0.53816783
0000b0 7e 4d 68 be 0a b2 4c bf f7 b6 99 be 3c eb 26 bf
       -0.22685811 -0.79959166 -0.30022404 -0.6520269
0000c0 d8 f0 e8 be 58 13 64 be eb 64 80 bf 55 17 df be
       -0.4549625 -0.22273004 -1.0030798 -0.43572488
0000d0 f4 46 e7 be 2b c0 8b be 6d 42 f4 be 07 75 d8 be
       -0.4517132 -0.2729505 -0.4770693 -0.42276785
0000e0 e0 be 2f bf 50 0f 64 bf 08 24 0d bf 20 f3 3c bf
       -0.6865063 -0.89085865 -0.55133104 -0.7380848
0000f0 30 04 a7 be 9f 22 67 bf e2 c6 13 bf 5a cb fb be
       -0.32620382 -0.902872 -0.57725346 -0.49178582
000100 aa 75 97 be 80 98 36 bf b2 2b 04 bf 0e f8 20 bf
       -0.29581958 -0.71326447 -0.51629174 -0.628785
000110 c9 75 27 bf 87 dd f2 be 15 a6 1e bf b5 28 9f be
       -0.654141 -0.47434637 -0.6197217 -0.31085745
000120 c3 ed 69 bf 2e 8a 16 bf 6d 1e 3d bf 2c 38 3a bf
       -0.9137842 -0.58804595 -0.7387455 -0.7274196
000130 d2 41 a9 be 7d c3 cb be 37 77 2e bf c5 15 19 bf
       -0.3305803 -0.39797583 -0.6815066 -0.5979884
000140 22 17 17 bf 95 90 e2 be bf d8 08 bf 51 28 ed be
       -0.5901967 -0.44250932 -0.5345573 -0.4631982
000150 43 05 19 bf ac ba dd be 23 44 26 bf 85 90 af be
       -0.59773654 -0.43306482 -0.6494772 -0.34289947
000160 00 f2 68 bf 21 a7 ef be c5 a3 46 bf f3 36 1c bf
       -0.9099426 -0.46807197 -0.7759364 -0.61021346
000170 f1 25 e8 be a0 d9 ed be c9 33 8d be a3 a8 31 bf
       -0.45341447 -0.46455097 -0.2757857 -0.69397944
000180 f6 9f e5 be 8e 12 29 bf bd a2 44 bf d3 cb 10 bf
       -0.44848603 -0.6604394 -0.7681082 -0.5656101
000190 36 7f de be 80 34 00 bf f2 ad 0a bf 5a 0a 27 bf
       -0.4345643 -0.5008011 -0.5417167 -0.6525017
0001a0 84 63 fa be 0e dd e6 be 2f 4c 1b bf e6 bc 00 bf
       -0.4890405 -0.45090526 -0.6066312 -0.50288236
0001b0 f7 62 02 bf 2a 1a bc be 73 2a ce be 37 75 56 be
       -0.5093226 -0.36738712 -0.4026676 -0.20943151
0001c0 53 20 2f bf c8 3f f4 be c0 f0 00 bf 42 38 1a bf
       -0.684087 -0.4770491 -0.50367355 -0.6024209
0001d0 4b 30 ca be f3 f1 06 bf a9 07 df be f4 53 21 bf
       -0.3948997 -0.52712935 -0.43560532 -0.6301873
0001e0 f5 e3 de be 31 1f 51 bf 86 73 38 bf d0 1c 3b bf
       -0.43533292 -0.8168822 -0.72051275 -0.7309084
0001f0 6a 1c 16 bf 56 0a 2d bf 69 0e 61 bf 96 82 f3 be
       -0.58637106 -0.67593896 -0.87912613 -0.47560567
000200 3c 3d ae be 3f 98 ee be bb 10 4f be 3f b7 bd be
       -0.34031093 -0.4660053 -0.20221226 -0.37053868
000210 c4 94 1b bf ef 21 25 bf b4 51 b8 be ae 1b 20 bf
       -0.60773873 -0.64504904 -0.35999835 -0.62542236
000220 57 33 37 bf 42 eb ba be b3 de f4 be 94 47 b1 be
       -0.71562713 -0.36507612 -0.47826156 -0.34624922
000230 0e 09 00 bf d3 97 b6 be b0 5f f4 be 54 da d4 be
       -0.50013816 -0.35662708 -0.47729254 -0.4157282
000240 c5 c9 42 bf e7 7d 16 bf fd 7c bc be 17 f3 05 bf
       -0.76089126 -0.5878586 -0.36814108 -0.5232405
000250 64 d5 61 bf ba 41 22 bf e1 ce 0d bf 27 32 db be
       -0.88216233 -0.6338154 -0.553938 -0.428117
000260 45 61 86 be d5 66 21 bf 0e 56 9f be 64 03 19 bf
       -0.26246086 -0.63047534 -0.31120342 -0.597708
000270 ba 9f 0f bf 4c a6 9b be 24 8c 41 be f5 ec e4 be
       -0.561031 -0.30400312 -0.18901116 -0.44712034
000280 e1 44 e5 be 6d 50 f9 be 60 25 ff be c3 af c0 be
       -0.44779113 -0.48694173 -0.49833202 -0.37634096
000290 22 0b e7 be 90 3e ad be ae 6d 15 bf 4d aa 0c bf
       -0.4512568 -0.33836794 -0.5837048 -0.5494736
0002a0 84 fa 06 bf 3d d0 fe be 4e 61 e9 be af d5 28 bf
       -0.52726007 -0.49768248 -0.4558205 -0.65951055
0002b0 eb 8b 7a bf cb c7 a3 be 39 28 9c be 18 49 80 be
       -0.9786975 -0.31988367 -0.30499437 -0.25055766
0002c0 77 15 be bb 60 c3 d1 be 7e 7e 1c bf f9 7a 79 bf
       -0.0058008987 -0.40969372 -0.6113051 -0.97453266
0002d0 26 a9 a3 be ea 6f 00 bf 25 eb 7d bf 7b 52 07 bf
       -0.31964988 -0.5017077 -0.9918693 -0.5286023
0002e0 7b 64 25 bf 0a 78 b0 be f0 77 4b be d8 a7 51 bf
       -0.64606446 -0.34466583 -0.19869971 -0.81896734
0002f0 d2 b8 1c be 4a f4 29 bf f7 b2 9e bd a5 26 c4 be
       -0.15304878 -0.6638838 -0.077489786 -0.38310733
000300 61 d4 20 bf 69 1d 38 bf 54 35 49 bf 5c 18 8f be
       -0.62824064 -0.71919876 -0.78597 -0.27948272
000310 17 80 14 bf 79 f4 ef be 76 cf c8 be 73 c8 ca be
       -0.5800795 -0.46866205 -0.3922078 -0.39606056
000320 29 56 01 bf 6c 15 23 bf c6 59 f0 be 1f bc 15 bf
       -0.50522095 -0.6370456 -0.46943492 -0.58490175
000330 1d 7e 0b bf 7b 54 50 bf 92 ef a7 be db 4e d1 be
       -0.5448931 -0.81378907 -0.32799965 -0.40880474
000340 0f 39 c8 be 8d b5 6d bf 38 62 23 bf 6b b3 23 bf
       -0.39106032 -0.9285515 -0.63821745 -0.63945645
000350 ba ff 05 bf e0 90 a1 be 70 07 52 bf e1 e8 0e bf
       -0.5234333 -0.31555843 -0.820426 -0.55824095
000360 a8 85 15 be 44 75 90 bd 78 a9 1a bf 01 58 a6 be
       -0.14601767 -0.07053617 -0.6041484 -0.32489017
000370 a8 a4 fa be 35 46 6d bf d3 88 fb be b4 63 40 be
       -0.48953748 -0.9268525 -0.49127826 -0.18788034
000380 48 4c 7a be 8b 8d d9 be 43 1a 78 bf 5c 85 b6 be
       -0.24443161 -0.424908 -0.9691507 -0.3564862
000390 4f 22 13 bf df 1c f5 be 09 b4 38 be 77 a6 86 bf
       -0.57474226 -0.4787359 -0.18037428 -1.0519551
0003a0 91 41 0c bf 57 a3 f2 be fb 85 04 bf fc 56 2c bf
       -0.54787546 -0.47390243 -0.5176694 -0.6732023
0003b0 18 27 00 bf bd 84 10 bf a1 bf c0 be 9f 6c 13 bf
       -0.5005965 -0.5645254 -0.376462 -0.5758762
0003c0 96 1f 3f bf c2 c6 28 bf 55 09 1d be 09 1d 13 bf
       -0.7465757 -0.6592828 -0.15335591 -0.5746618
0003d0 47 c8 b1 be dc fb d2 be 6d ef 14 bf 8f eb 17 bf
       -0.34723112 -0.41207778 -0.58177835 -0.5934381
0003e0 88 d8 58 bf 68 2b ac be a0 cb 8d bf 37 3c 3d be
       -0.847054 -0.33626866 -1.1077766 -0.18480001
0003f0 60 5c 37 bf d7 fe 3f bf c8 af 59 be 9f ef ff be
       -0.7162533 -0.7499823 -0.21258461 -0.49987504

net.3.weight f4 [256, 256]
000000 0a d5 8e be ab 82 88 be 97 92 c8 3e b7 79 f4 bd
       -0.2789691 -0.26662192 0.3917434 -0.11937278
000010 00 96 57 be b4 7e f3 bd 3c 4a 40 bf 4b ad 7b bd
       -0.21053314 -0.11889401 -0.7511327 -0.061444562
000020 25 ab f6 3e 43 5b df be a0 9e 01 3e 5c 6d 16 3d
       0.48177448 -0.43624315 0.12658167 0.036725387
000030 66 bd 8a 3d 3c c9 82 3e fb ed 1d bd 8c 59 2f 3e
       0.06774406 0.25544155 -0.038557034 0.17124003
000040 27 13 47 be 79 a6 a2 be 35 75 82 bd 15 5b 9b 3e
       -0.194409 -0.31767634 -0.06370012 0.30342928
000050 3b 15 27 3d c2 34 94 3e dc 58 7f be 49 c7 ca be
       0.04079173 0.289465 -0.24936241 -0.39605168
000060 48 c6 d8 be 3f 3e b0 3d b2 dd 20 be 09 f6 2b bf
       -0.42338777 0.086056225 -0.1570957 -0.67172295
000070 26 64 0c be b0 f4 bb bd 07 83 82 3c 23 5c 53 3f
       -0.13710079 -0.0917753 0.01593162 0.82562464
000080 57 33 63 be 3d 66 84 be 86 b0 2d 3e 0c 2f 32 3e
       -0.22187553 -0.25859252 0.1696187 0.1740076
000090 54 59 b1 bd ec 73 9b be cd 5b 05 be 98 0e 4e be
       -0.08659616 -0.3036188 -0.130233 -0.20122755
0000a0 9f c3 65 3d 8a 88 bc bd 00 8e 38 bd 9a f8 7f be
       0.056094762 -0.0920573 -0.045057297 -0.24997178
0000b0 4a e7 da 3c 1a f1 4a bf 99 c5 5d be 1e c9 5b bd
       0.026721615 -0.7927414 -0.21657409 -0.053658597
0000c0 b7 99 06 3f ac 7a 88 bc fa b5 15 be 96 ea bd 3c
       0.525783 -0.016660057 -0.146202 0.023183148
0000d0 c4 7c 5c bf 68 e0 09 bd a8 cd 90 be 05 7b fc 3c
       -0.8612788 -0.033661276 -0.28281903 0.030820379
0000e0 cc 07 1e bf 5e 89 2a bf 9a 6c d2 bd 30 e8 87 3e
       -0.6173065 -0.66615856 -0.1027462 0.26544333
0000f0 5c c3 8a 3c eb db 15 3c a3 24 8f 3e 9a 3d ee 3c
       0.016938858 0.009146671 0.2795764 0.029082108
000100 fd 10 8b 3d d4 9a 1c 3e 9c 49 bd bd cc 7e 9f be
       0.0679035 0.15293437 -0.092425555 -0.31151426
000110 bb e2 8f bf b1 98 58 3e d0 4e 94 bd 08 ab 50 be
       -1.1241068 0.21151997 -0.07241595 -0.20377743
000120 8a fb 44 bf ea ca 8b 3e 27 58 cc bd 96 8c 88 3d
       -0.7694632 0.2730325 -0.09977751 0.0666744
000130 4d fc 0b 3c 05 65 60 3d b4 7c 25 be a3 5a ea 3e
       0.00854404 0.05478384 -0.16160852 0.45772275
000140 fe 67 c3 be 24 b4 32 be 1f 9c 15 bd f8 98 97 bd
       -0.38165277 -0.1745153 -0.03652584 -0.07402223
000150 b9 db d7 3d d0 37 a4 3d 36 58 f8 bc 53 34 f4 bc
       0.10539956 0.08018458 -0.0303155 -0.029810106
000160 5c 71 88 3d 48 c1 92 be 2a a7 cd 3d b0 0f 07 be
       0.066622466 -0.28663087 0.1004165 -0.13189578
000170 1f f1 ac 3e 01 e1 c9 3d 3a 05 ba be bb b1 92 3e
       0.3377771 0.09857369 -0.36332113 0.28651223
000180 2a e6 f6 be d4 86 56 3e db 5f 8e be 98 ba 15 be
       -0.48222476 0.2094987 -0.27807507 -0.14621961
000190 9e 86 e0 bc d8 40 3c bf 83 e6 18 3e 76 88 a6 3d
       -0.02740794 -0.73536444 0.14931683 0.081314966
0001a0 9a be 09 be de 96 82 be 1f 02 ce be 5d 48 99 be
       -0.13451615 -0.25505728 -0.40235993 -0.2993802
0001b0 af 26 8b 3d 04 b6 3c bf 3a 05 3f bf 19 de 7a be
       0.06794488 -0.73715234 -0.7461735 -0.24498786
0001c0 0b 5a a3 be 5f 95 aa be d1 ba 14 3e e4 23 4a 3d
       -0.31904635 -0.33317086 0.1452439 0.049350634
0001d0 7e e6 60 3f 3b 8f f9 bd ff 5b 1a bf d9 2d 2b be
       0.87851703 -0.12185522 -0.60296625 -0.16716708
0001e0 04 3c 0c 3e b6 a5 d9 bd 40 ef 4a be 50 31 fe bd
       0.13694769 -0.1062731 -0.19817829 -0.12411749
0001f0 b3 05 28 bf 54 b1 6c bc 30 aa e4 bb 05 92 94 be
       -0.65633696 -0.014446575 -0.0069782957 -0.29017654
000200 64 61 12 3e c1 1e 7a 3d 0f b3 15 3d e7 31 52 be
       0.14294964 0.061064485 0.036547717 -0.20526849
000210 18 72 26 3e 64 43 bb 3e 26 1f e1 3e d9 4b 29 bd
       0.16254461 0.36574852 0.43969077 -0.0413321
000220 16 e1 2b be ca 08 c9 3e 7a 09 48 bf 6b a5 2c bd
       -0.16785082 0.39264518 -0.7813946 -0.042149942
000230 3a fb d0 be 40 c0 6e be d1 82 df 3e d5 1a 31 3e
       -0.4081667 -0.23315525 0.43654492 0.17295392
000240 81 48 8e 3e 1d cf dd 3d 44 26 63 bf b0 ad a2 3e
       0.2778969 0.10830519 -0.88730264 0.31773138
000250 f7 eb 62 3d 46 cd b4 3e c6 59 fa 3e 8a e4 49 3d
       0.055400815 0.3531286 0.48896617 0.049290217
000260 0b d3 b9 3e f0 eb a0 bd 77 4a 63 bf 88 79 84 be
       0.36293826 -0.078575015 -0.887855 -0.2587397
000270 06 90 fd 3d 4e 16 25 be 6a 3c 93 3b b9 84 ee 3e
       0.12380986 -0.1612179 0.004493286 0.46585634
000280 bb 32 8c 3d df 2a 8f be 69 b6 ba be 75 59 fa 3d
       0.068456136 -0.27962396 -0.36467293 0.12224094
000290 77 b9 fd 3c fb 6e 60 3e 54 03 85 3e bc da a5 3e
       0.030972226 0.21917336 0.25979102 0.32393444
0002a0 9f 7c a6 bf 86 49 c4 3d a6 33 15 3e 07 64 ad be
       -1.3006781 0.09584336 0.14570484 -0.33865377
0002b0 43 05 81 3d d7 e3 62 ba c4 d3 50 bd 09 9a ae 3c
       0.06299832 -0.00086551666 -0.050983205 0.021313684
0002c0 3a 89 87 bc ab 9a 16 3e ca bc 73 be b4 74 88 be
       -0.016544927 0.14707439 -0.23802486 -0.26651537
0002d0 a3 61 2a bf 43 6b 9a be 4d 45 f7 be 14 ce 8b 3e
       -0.6655523 -0.3015996 -0.4829506 0.27305663
0002e0 1c 9c 82 3b d2 f6 a1 be 1a 35 cc 3c 4b 02 0b bf
       0.003985895 -0.3163362 0.024927665 -0.54300374
0002f0 f6 4a c7 bd e9 79 a3 be 69 11 32 3e 4c 27 48 3f
       -0.097310945 -0.31928948 0.17389454 0.7818496
000300 79 17 f4 be 46 04 5b 3e 59 f4 b2 be 2d 37 0d be
       -0.47674158 0.21388349 -0.34952047 -0.13790579
000310 4f c9 cc bc 4c 94 8c 3e c6 9e 18 3e 24 e3 62 bb
       -0.024998335 0.27456892 0.14904317 -0.003462025
000320 42 59 4c bd c8 01 98 be 00 10 22 bf 5c 1f 90 3d
       -0.04988981 -0.2968886 -0.63305664 0.07037231
000330 f2 21 49 bf d7 a7 ad 3e 53 ca 33 be 9f 62 41 3e
       -0.7856742 0.33917114 -0.1755765 0.18885277
000340 db a1 14 bf 91 9f 52 3d df 34 87 bf 3d 90 25 bd
       -0.5805947 0.051421706 -1.056301 -0.04042076
000350 ef 3b 68 3e 84 16 a6 3e 96 00 03 3e e4 32 90 bd
       0.22679113 0.32439053 0.12793192 -0.070409566
000360 36 9a 46 be 1b 07 aa 3d b9 f6 7a bd e5 da 0c bf
       -0.19394764 0.083021365 -0.06127045 -0.55021507
000370 b9 72 5f 3e 45 81 2d bf 2c 14 47 3d e9 91 a8 3e
       0.21821107 -0.67775375 0.04860322 0.3292382
000380 61 df b2 bd c6 7c 8d b9 7b 52 3b be 9e 64 a2 be
       -0.087340124 -0.0002698658 -0.18293183 -0.3171739
000390 74 0e 07 3f e4 60 85 bf 9d dc 29 bf db f4 60 be
       0.5275643 -1.0420194 -0.66352254 -0.21968405
0003a0 ec a5 bb 3d 59 aa 09 be 06 88 50 3e 5d 65 24 bc
       0.091625065 -0.13443889 0.20364389 -0.0100339325
0003b0 9b 99 28 3d 3d bb 04 3f cc f8 78 3e ef 0f 1f bf
       0.041162115 0.518482 0.24313658 -0.6213369
0003c0 f3 5f ef bd e5 5f 0a bf 16 fb 82 3e 4e 9a 61 be
       -0.11688223 -0.54052573 0.25582188 -0.22031519
0003d0 ca d0 aa 3e ff 0e 06 bf 49 42 d1 be ba 18 66 bf
       0.33362418 -0.5236663 -0.40870884 -0.8988148
0003e0 5a 33 fd bd 53 f1 fc be c8 07 af 3b 88 2d 8f bc
       -0.1236331 -0.49402866 0.005341504 -0.017477766
0003f0 8d 3c 12 3e 52 0a 34 3f 4a a4 d5 3d b0 d5 64 be
       0.14280911 0.7032825 0.10431726 -0.2234714

net.3.bias f4 [256]
000000 5d 19 6a 3d ba 1b 52 bd be 8e 31 be fc 06 9d bd
       0.057153095 -0.051295973 -0.17339608 -0.07667348
000010 ec a0 4c bd 2b 74 77 bc 6b d9 f1 bc f9 f0 34 3e
       -0.049958155 -0.01510338 -0.029522618 0.17670049
000020 80 1b 45 3e 33 bc 6d bd 95 c8 91 bd a3 a2 86 bd
       0.19248772 -0.05804081 -0.07118336 -0.06573989
000030 f5 45 18 be fa 50 dd bc cc 46 7d bd 3b cf be 3d
       -0.14870436 -0.027016152 -0.061835095 0.0931687
000040 6b 31 c1 3d 67 cc ba bc 26 00 c8 bd 54 04 9d bd
       0.09433254 -0.022802545 -0.09765653 -0.07666841
000050 f3 56 31 be 19 84 aa bd 41 ea 0d be 8c dd a5 3d
       -0.17318325 -0.08325977 -0.13858892 0.08098897
000060 68 4d e4 3d 69 78 90 bd 1a f3 80 bc bd 94 0f bc
       0.111475766 -0.070542164 -0.01574092 -0.008763489
000070 c3 d3 1e 3e b2 ff ae bd 75 a4 98 bd d6 70 af bd
       0.15510468 -0.08544864 -0.07453243 -0.085664436
000080 2f ad a5 be 92 e7 a0 bd 2f 03 d5 bd 4b 55 80 be
       -0.3235869 -0.078566685 -0.10400998 -0.25065073
000090 a5 2f 7b bd d7 9a 1d be 69 6f c0 bb a6 7e 93 bc
       -0.061324734 -0.15391098 -0.005872656 -0.018004727
0000a0 86 2b bf bd a9 02 4b bd a8 2c 7e 3e de 5f b4 bd
       -0.09334473 -0.049563084 0.24821723 -0.08807348
0000b0 72 41 17 3e 0c 8a 78 bd 94 9d 01 bd 3d 0f 23 bd
       0.14771059 -0.060678527 -0.03164442 -0.039809454
0000c0 1b b4 14 3e 61 27 ee bd e9 01 81 bb c2 32 57 bc
       0.1452183 -0.11628605 -0.0039369953 -0.01313466
0000d0 02 a2 75 3a ba 20 d1 3c 10 d1 6c 3d 5d ed b0 bb
       0.00093701493 0.0255283 0.057816565 -0.0053993897
0000e0 90 aa ce bc 68 b3 f9 3d 02 6b 94 3d e0 10 04 bd
       -0.025227815 0.12192422 0.072469726 -0.032242656
0000f0 80 a6 5b be 56 a4 f8 3d 7a 61 6b bd 06 55 40 bc
       -0.21450233 0.121407196 -0.057466008 -0.011739021
000100 2a f4 b4 bc 15 76 9b bd db f7 5f bc 27 83 2a 3e
       -0.022089083 -0.07590882 -0.013669933 0.16651593
000110 ea ca 04 be 34 a9 39 bd 57 fb 11 be bf 26 6b bd
       -0.1296803 -0.04532738 -0.14256035 -0.057409998
000120 6d 25 67 bd 4b 56 01 3e 89 cd 94 bd d7 e0 bd 3d
       -0.056432176 0.12630574 -0.07265765 0.092714004
000130 91 c7 30 be f0 6a 35 bd e3 80 35 be d1 92 5d 3e
       -0.17263629 -0.044291437 -0.17724948 0.21638037
000140 96 8d 0c 3e c0 41 9c 3c 89 a3 7b bd b8 32 95 3d
       0.13725886 0.01907432 -0.061435256 0.072850645
000150 24 07 70 bd c4 af b9 bc 80 1e 94 bb c4 22 be bd
       -0.05860056 -0.02266682 -0.0045202374 -0.09283975
000160 97 27 89 bd 7d 86 0b 3d d0 bd 3a bc a8 7a 83 3e
       -0.06697004 0.034063805 -0.011397794 0.25679517
000170 5a ae 30 bd 71 bb 0b bc d0 a7 aa bd 99 b4 bc bd
       -0.043135025 -0.008528576 -0.08332789 -0.09214134
000180 63 42 63 3d c4 1e 73 be 4c 44 25 bd 15 b5 73 be
       0.055483233 -0.23742205 -0.040348336 -0.23799546
000190 39 16 4a bc 90 b4 55 be 9c b6 1d bb ea 41 c3 39
       -0.0123344 -0.2086966 -0.0024065142 0.00037242408
0001a0 bf 80 2e bd ca e4 e9 3d bf be fe bd 98 5d 13 be
       -0.04260325 0.11420591 -0.12438726 -0.14391172
0001b0 51 51 b5 3d 79 e3 71 bc 97 f4 dd 3c d1 f1 11 3e
       0.088534005 -0.014763706 0.027094169 0.14252402
0001c0 36 a6 c8 ba ea e9 33 3e 0c e6 46 bd a3 65 fb be
       -0.0015308324 0.175697 -0.048559234 -0.4910098
0001d0 89 a3 19 bd ea 75 0d bd 43 f6 f6 3c c2 43 ac bc
       -0.037509475 -0.03453628 0.030146724 -0.021028403
0001e0 e8 a3 90 3e 0b 68 4f bd 30 06 e4 bc 18 8e c4 bd
       0.2825005 -0.050636332 -0.027834982 -0.09597415
0001f0 30 7c 8a bd 65 4c 98 3e 0d 42 51 3e ca 5b 8b bd
       -0.06761968 0.29745784 0.20435353 -0.06804617
000200 6d 80 f2 3c 8a 50 83 bd 22 74 56 bd 38 e4 2b 3e
       0.029602254 -0.06411846 -0.052356847 0.16786277
000210 0f 9e d2 bd 04 e8 eb bc 92 a6 37 bd fb b6 4e be
       -0.102840535 -0.028797157 -0.04483659 -0.20186989
000220 85 02 d3 bc 74 27 93 bc 18 4b 45 3d 8a 5b ea 3d
       -0.025758037 -0.017963149 0.048167318 0.11443241
000230 d2 55 fc 3c f7 8b 63 3e a8 c5 05 bd bc 49 06 bd
       0.030802641 0.22221361 -0.032659203 -0.032785162
000240 47 9f 5b bd 06 67 d1 be 85 68 3d 3d e0 bc 01 bf
       -0.053618696 -0.40898913 0.046242256 -0.50678825
000250 ad 92 07 bd 39 11 e9 bc 93 e5 f9 3c 8f e0 e1 bd
       -0.033098865 -0.028450595 0.030504977 -0.11029159
000260 01 d4 b2 bd 08 c8 88 bd a6 ae be bb 3c 28 09 be
       -0.08731843 -0.06678778 -0.0058191596 -0.13394254
000270 80 9a 1b be 0f 7a da 3d 60 a9 79 3e 96 ca 4b 3c
       -0.15195656 0.10667812 0.24381018 0.012438437
000280 b8 a6 80 bd 62 89 ec 3c b2 f8 51 bd 63 93 82 bd
       -0.06281799 0.028874103 -0.051262565 -0.06375768
000290 66 3a 7b bd f6 7b 60 bc 96 25 a9 3c de 07 b8 bc
       -0.06133499 -0.01370143 0.020647805 -0.022464689
0002a0 fe aa 9a 3b b9 33 48 bd 5c 9a 29 3e c1 3f 4b bb
       0.004720091 -0.04887745 0.1656279 -0.0031013342
0002b0 d3 ae 9d bd 7b 91 5e bd 83 5e 37 bd 29 f0 a3 bd
       -0.07699361 -0.05433796 -0.044767868 -0.08004791
0002c0 83 77 37 3d 35 34 69 bd 3e 8c 8d bb 6b f7 38 3d
       0.04479171 -0.056934554 -0.0043196967 0.04515783
0002d0 c0 eb 58 bb 4d f5 bc bd 89 c2 53 be 61 1a a8 bd
       -0.0033099502 -0.09226475 -0.20679678 -0.082081564
0002e0 c2 47 e5 3c f3 af 72 bd a7 ba 14 3d b8 6c c6 bd
       0.027988318 -0.05924983 0.036310818 -0.09688705
0002f0 e7 be 04 bd e6 99 aa ba 52 48 b6 be 24 09 cf bd
       -0.03240862 -0.0013015836 -0.3560205 -0.10109165
000300 d6 f2 98 bd d4 1f dc bc b0 b7 65 bc 6b c9 22 3e
       -0.07468192 -0.026870646 -0.014020845 0.15897147
000310 80 a4 67 bd 9e b5 64 bc 67 87 22 be 17 6d 11 bd
       -0.056553364 -0.013959317 -0.15871964 -0.035504427
000320 28 64 b9 bd f4 e1 7e 3b 71 ed fa bd 62 c6 95 3d
       -0.090523064 0.0038892003 -0.122523196 0.07313229
000330 43 73 41 bc ae 48 eb bd 8e e4 d2 bd 40 32 f1 bd
       -0.011807266 -0.11488472 -0.102974996 -0.117771626
000340 8d 7c dd bd f0 b8 a3 bd d3 78 2a be a0 30 a3 3d
       -0.10814772 -0.079942584 -0.16647653 0.07968259
000350 21 4f fe bd d7 05 2a 3d 6f 58 0b 3d bb 1c 0c 3d
       -0.124174364 0.041509476 0.034019884 0.034207087
000360 36 ce 62 be a1 8f 2d bd 2c 01 d8 bd 24 07 e1 bd
       -0.22148976 -0.042373303 -0.105470985 -0.1098769
000370 04 00 d5 bd d2 c0 f0 3c fb cc 5d be 8f cc ff bc
       -0.104003936 0.029388819 -0.21660225 -0.03122547
000380 71 53 cb bd 2c ba f4 be 2c 40 1c 3d a5 54 36 3e
       -0.099280246 -0.47798288 0.038147137 0.17805727
000390 a2 8e 53 bd f2 38 b6 bd 8a 15 bb bd 39 ae 86 3d
       -0.051649697 -0.0889758 -0.091349676 0.06576199
0003a0 29 5b 69 bd b1 2d fd 3d 27 c1 05 3e 7c 6d a8 bd
       -0.056971703 0.123622306 0.13061963 -0.082240075
0003b0 8f fe ff bc 3a b2 a9 bd ef 4f 5e 3d bb d0 e4 3d
       -0.031249313 -0.08285947 0.05427545 0.11172625
0003c0 2d d9 11 bd cd cd 9c bd d0 5f 14 bc 6b 6b d8 bc
       -0.035607506 -0.07656441 -0.009056047 -0.026418408
0003d0 0c ca 54 3d 23 65 be 3b 89 4b cb bd 84 4d d9 bd
       0.0519505 0.0058103963 -0.099265166 -0.10610488
0003e0 88 d6 79 bd f8 02 e2 bc a6 dc 04 bf e1 7b 50 3d
       -0.06099561 -0.027589306 -0.5189918 0.05089939
0003f0 8a b1 e6 bd dd a8 ae 3c fa 74 c0 3d eb 23 f8 bd
       -0.11264332 0.021320755 0.093973115 -0.12116226

net.6.weight f4 [2, 256]
000000 c4 c8 9b be 5e b0 93 3d 9d d7 24 3d 7f 54 23 3f
       -0.3042661 0.07211374 0.040244687 0.63800806
000010 ec b0 38 3d 3f 42 09 bf 63 21 32 3d 37 07 6d bd
       0.0450906 -0.5361671 0.04348887 -0.05786821
000020 52 96 b9 bd 21 5a 96 bc 24 42 fc 3c 8e f5 d1 3e
       -0.090618744 -0.018353524 0.030793257 0.41007656
000030 8a 46 8b 3b 46 cc 7c 3d df dc 5e bb d7 31 bc 3e
       0.0042503523 0.061718248 -0.003400616 0.36756775
000040 40 c6 e6 be 9a d3 01 3c 9e b8 8d bd 9c 4c 16 3f
       -0.45073128 0.007923985 -0.069199786 0.58710647
000050 69 f6 37 3f 93 3f 31 3c 0c c1 2c be ce 1a 07 be
       0.7186037 0.01081838 -0.16870517 -0.13193819
000060 45 6d 2d 3f 7b 53 01 bd 1c 3e 08 bf 89 d4 ef bc
       0.6774486 -0.031573754 -0.5321977 -0.02927615
000070 ca 00 b1 bd c5 45 93 bd 69 57 7d bd 08 35 69 3d
       -0.086427286 -0.07191042 -0.06185094 0.05693534
000080 77 cd 70 3e 95 29 f3 3d d0 27 3f 3d 8d 3a 78 3e
       0.23515879 0.118731655 0.046668828 0.24241085
000090 c5 58 3d bd 41 b7 87 3d 94 c7 d7 3e c3 fc 89 3e
       -0.046227235 0.0662675 0.42144454 0.26950654
0000a0 d9 02 24 bd 84 21 7c bd 0e 70 00 bf 16 69 a5 be
       -0.04004178 -0.0615554 -0.5017098 -0.32306737
0000b0 f2 a7 28 be 5a f1 39 bd aa bf 82 3d fd 1f 7b bc
       -0.16470316 -0.045396186 0.06384213 -0.015327451
0000c0 f1 dd ae be 9c 76 7a bc 70 22 94 bc 2d a6 0e bd
       -0.34153703 -0.015287068 -0.018082827 -0.034826446
0000d0 49 bc 2a bd 08 32 d5 3e c2 31 d0 be 38 bb e5 3c
       -0.04168347 0.41639733 -0.40662962 0.028043374
0000e0 d8 4c 21 3c 35 bd 04 bf e0 b5 d4 3e f0 86 cd 3e
       0.009844981 -0.51851207 0.4154501 0.40142012
0000f0 57 38 41 3f 7d 00 32 be 80 72 f7 3c d4 15 be 3e
       0.7547659 -0.17382999 0.030205965 0.3712603
000100 f7 88 66 3c 3c 21 68 3d 97 6b e9 bc 48 10 05 3f
       0.014070741 0.05667232 -0.028493686 0.5197797
000110 a3 e9 9a bd f4 5c 7e bd 43 9d 03 bd aa 77 21 3d
       -0.07564094 -0.062100366 -0.0321324 0.03942076
000120 01 5f 67 3c 9c f8 1b 3f e1 70 3d bf c7 3f 84 3e
       0.014121772 0.6092622 -0.74000365 0.25829908
000130 a7 57 61 3e c8 20 48 3c 9b f5 fb 3e 7e 69 8e be
       0.22006093 0.012214847 0.4921082 -0.2781486
000140 39 b5 e1 be 66 31 ee bd ee ea 4f 3d 6c 9e 13 be
       -0.44083574 -0.11630516 0.050761156 -0.14415902
000150 fd 36 a9 bb cb ee 74 be 10 8f 15 bd f8 fe 74 3d
       -0.005164026 -0.23919217 -0.03651339 0.05981347
000160 ca 70 ba bc af 89 12 3f 7d 70 e8 be 42 f2 1c 3f
       -0.02275886 0.5724134 -0.45398322 0.61307156
000170 0c a0 8d 3e 2f 05 2f 3c af 36 5c bc 6b 17 ae bd
       0.2766117 0.010682388 -0.013440772 -0.085005604
000180 1e 58 cd be 0c da 58 bd 27 29 d8 3c f0 fa b1 3d
       -0.4010629 -0.05294232 0.02638681 0.08690441
000190 25 9a 20 bd 2a 24 8a bc ab ac 0c 3d 1b 75 ee 3c
       -0.039209504 -0.016862947 0.034344357 0.029108575
0001a0 f8 d9 74 bc 71 0e 40 3e 47 47 af 3c 1c 0b d6 3e
       -0.014944546 0.18755509 0.021396292 0.4180535
0001b0 36 a4 7c bd 86 ce ac 3e 40 20 19 bc 1b 99 b0 be
       -0.06168004 0.33751315 -0.009346068 -0.3449181
0001c0 84 e7 d0 3d d2 46 b8 3e 9c c6 e9 b7 38 ce d0 be
       0.10200408 0.35991532 -2.786825e-05 -0.40782332
0001d0 31 cd 4f bc 44 27 b5 3c 60 50 f0 be 85 95 37 3f
       -0.012683199 0.02211345 -0.4693632 0.71712524
0001e0 7a 6b b9 be 1a fd b7 3c 16 1b d4 3d 27 ca 42 bd
       -0.3621481 0.022459555 0.10356729 -0.04755607
0001f0 c8 23 12 3d 9c c4 ba 3e dc 98 1d bf 21 93 18 bc
       0.035678655 0.36478126 -0.6156137 -0.009312422
000200 50 ee d4 3c 7c 34 fd 3c 98 e9 cb 3e cb 7d 56 3f
       0.025992543 0.030908816 0.39826655 0.83785695
000210 90 c2 64 bd 03 66 88 bd 56 fc 2e 3d ad 16 28 3f
       -0.05584961 -0.06660082 0.042721115 0.656596
000220 0a 9c 9e 3c 3c 3c b0 3e 45 94 4d 3e 23 8e 90 be
       0.019361515 0.34420955 0.20076092 -0.28233442
000230 51 ae 51 be 84 e9 85 bf 22 08 23 bd f1 1b 81 3d
       -0.20476653 -1.0461888 -0.039802678 0.063041575
000240 2b 67 e3 3c 47 57 6d 3f 85 f7 90 3e 2e fc 95 3e
       0.027759155 0.927113 0.28313842 0.2929396
000250 b5 60 2a bd 58 d4 29 3d bf 90 8a 3e c1 87 a0 bc
       -0.041596133 0.041462272 0.27063558 -0.019595983
000260 e9 4a 93 3c 32 1f 60 3d 6b ac 32 3f 4a 41 38 3d
       0.017980056 0.05471725 0.6979434 0.04498414
000270 88 03 c7 3e 7e 19 e7 be f9 6d 57 be c0 8d 8a ba
       0.38869882 -0.45136636 -0.21038045 -0.0010570809
000280 bd 49 2e 3c 33 71 bb 3c 16 32 3f bc b1 9b 60 bd
       0.010637698 0.022881126 -0.011669656 -0.05483598
000290 32 e6 89 bd 50 b4 26 be dc 34 db 3e 6f 7b dd 3c
       -0.067333594 -0.16279721 0.42813766 0.027036397
0002a0 8f f0 4e be 2b 08 bb bc ec 47 02 bf 8b d8 02 3d
       -0.20208953 -0.022831043 -0.50890994 0.031944793
0002b0 9e f8 11 3c 61 33 12 bd 06 43 9e 3d c3 0d 1d 3d
       0.008909373 -0.03569353 0.077276275 0.038343202
0002c0 c5 45 ea bd 3b fa 86 bc 72 8a 8f 3e 2f c3 09 3f
       -0.11439089 -0.016476741 0.28035313 0.5381345
0002d0 53 1c b5 bd 62 5a 64 3d b9 2f 9b 3d aa 44 68 3e
       -0.08843293 0.05575026 0.07577462 0.22682443
0002e0 ef 90 ba be ae 41 2b 3f 37 5a 93 be bb 86 83 3e
       -0.364387 0.66897094 -0.28779766 0.2568873
0002f0 83 b7 c9 bb ec 81 03 3f b3 9f ac 3e 0b 4a 2f 3b
       -0.0061559095 0.5137012 0.3371559 0.0026747014
000300 9a 4e b7 3e 72 93 86 bc 05 8a 74 3e 72 45 d6 be
       0.35802156 -0.01642773 0.23880775 -0.41849858
000310 4d 1b a4 bb 29 88 3b 3e 52 01 12 3f 49 3b 0d 3f
       -0.0050081373 0.1831366 0.57033265 0.55168587
000320 c7 43 05 3d 44 33 7e be 5b e7 a5 3d cb 0c 0a bf
       0.03253534 -0.24824244 0.08100768 -0.5392577
000330 e9 d7 68 bd 65 9d 49 bc d5 5f 54 bd 1e 55 6e 3d
       -0.056846533 -0.012305592 -0.051849205 0.058186643
000340 a1 e5 0b 3d c5 50 2b bd 6a cd b0 be c1 25 31 3e
       0.034154538 -0.041825075 -0.34531718 0.17299558
000350 3f 67 04 3a de e9 a2 be 42 6c a9 3e 2b 9a 43 3c
       0.0005050785 -0.31819052 0.33090407 0.011938612
000360 60 1f c1 be 15 d2 9f bb 57 ea a6 3c fd 48 90 3e
       -0.3771925 -0.0048773387 0.020375414 0.28180686
000370 33 a3 9f bd 52 07 22 3f 11 b1 e4 3d a5 d0 9e bd
       -0.077948 0.6329242 0.11166585 -0.077546395
000380 f5 88 22 bd a1 87 c7 3e af f0 00 3f 39 1a e7 be
       -0.039681394 0.38970664 0.50367254 -0.45137194
000390 7f 60 02 3b a0 94 0f 3d 67 1e 0a 3c 97 d2 3e 3f
       0.0019893942 0.03505385 0.0084301 0.74540085
0003a0 8c 6e 0f bd e7 16 34 3e 09 d5 8a 3e 31 be 66 bc
       -0.035017535 0.17586862 0.27115658 -0.014083431
0003b0 62 5b 87 3e 3a 26 d3 3d b2 d7 20 3f 47 33 fe 3e
       0.26436907 0.103100255 0.62829125 0.49648497
0003c0 47 ac 04 ba 4c 5c 3d bf 03 f6 3b 3c 9f 89 34 3d
       -0.0005061072 -0.7396896 0.011472228 0.04407656
0003d0 0c 0a 0d be cc be ad 3c 3c 92 22 bd 5b c1 10 bd
       -0.13773364 0.021209143 -0.03969024 -0.03534065
0003e0 ff f8 5a 3a a1 e7 3f 3c f0 e4 7c be a0 dd b7 3e
       0.00083531433 0.0117129395 -0.24696708 0.35911274
0003f0 48 d6 48 3d 72 fd 7b 3e c7 c6 1f bf ff 13 b9 3c
       0.04903248 0.246084 -0.62412685 0.022592543

net.6.bias f4 [2]
000000 da 77 e4 bd bb 43 4d 3c
       -0.11155672 0.012528355

norm_mean f4 [1, 42]
000000 a1 ed c4 44 ea c1 cd 43 74 61 23 45 0f 0a 53 44
       1575.4259 411.51495 2614.0908 844.15717
000010 ff 7c ec 44 4a 87 5e 4e f0 30 06 42 94 8d c0 43
       1891.9061 9.3335206e+08 33.54779 385.10608
000020 0b b2 65 44 ab a9 59 c4 86 3e 81 44 ff 77 8d 4d
       918.7819 -870.65106 1033.9539 2.9668144e+08
000030 3c 7d 03 43 cc 4a 9e 43 01 90 4f 44 aa d0 21 c4
       131.4892 316.58435 830.25006 -647.2604
000040 94 bd 6c 44 d3 c7 72 4d 3e 63 48 41 92 f6 7f 43
       946.96216 2.5457387e+08 12.524229 255.96317
000050 7c da 0f 44 dd 82 04 c4 f1 56 aa 43 ae 36 34 4c
       575.4138 -530.04474 340.67923 4.724191e+07
000060 e1 54 4f c0 29 27 3b 43 6c a1 d4 43 77 59 e0 c3
       -3.2395556 187.15297 425.2611 -448.69894
000070 bf 2e 8f 43 55 cc d7 4b 89 82 85 c3 0f f5 38 43
       286.3652 2.8285098e+07 -267.0198 184.95726
000080 73 47 ae 42 c6 b9 28 c4 4e 55 e4 43 01 e2 4a 4c
       87.13955 -674.9027 456.66644 5.3184516e+07
000090 36 24 25 45 66 a3 ef 43 31 d7 79 45 2f 6b 30 44
       2642.2632 479.27655 3997.4495 705.67474
0000a0 32 1a 5e 43 36 78 a3 44
       222.10233 1307.7566

norm_std f4 [1, 42]
000000 53 e2 f5 44 23 8b 5b 44 46 f3 65 45 94 e1 f8 44
       1967.0726 878.174 3679.2046 1991.0493
000010 90 d9 f0 44 c8 07 8b 4e 7e 6f a8 44 12 79 14 44
       1926.7988 1.1662715e+09 1347.4841 593.8917
000020 e8 29 0b 45 09 32 06 45 9f af 8b 44 62 6b 05 4e
       2226.6191 2147.1272 1117.4882 5.596018e+08
000030 10 f6 9f 44 db be f1 43 38 f9 e7 44 98 85 09 45
       1279.6895 483.49106 1855.7881 2200.3496
000040 b2 a1 82 44 8b 36 f6 4d 8c c0 b7 43 b8 26 cd 43
       1045.053 5.163462e+08 367.50427 410.3025
000050 f3 4b 90 44 a1 7f 83 44 35 81 fb 43 ba 3d 1d 4d
       1154.3734 1051.9884 503.00943 1.6487926e+08
000060 95 81 93 43 1c 40 9d 43 d9 97 64 44 e4 7f 64 44
       295.01236 314.50085 914.3726 913.9983
000070 6c 65 ba 43 ba a9 a4 4c 1f 5f ee 43 2a cd 8f 43
       372.79236 8.633083e+07 476.74313 287.60284
000080 4b 22 46 44 19 0c 65 44 36 77 e3 43 b8 d2 9e 4c
       792.5358 916.189 454.93134 8.326906e+07
000090 eb b6 ee 44 2f 19 57 44 a0 cc 78 45 3c 59 10 44
       1909.7162 860.3935 3980.789 577.3943
0000a0 18 b0 b0 43 58 fa ca 44
       353.37573 1623.8232
